nets/Pretrained Models/Gender_gpu.pth (torch, 821343 bytes, 11 tensors)

embedding.weight f4 [50, 128]
0	0x3eb74947	0.35798094
1	0xbf470691	-0.77744395
2	0xbc771b56	-0.015082201
3	0x3ecee25b	0.4040707
4	0xbeaae8a9	-0.3338063
5	0xbeefd52c	-0.46842325
6	0x3f5e3222	0.86795247
7	0xbfc4bc7c	-1.5370021
8	0xbea2f187	-0.31824896
9	0x3ed86be1	0.42269805
10	0x3df17a20	0.117908716
11	0xbeccbf58	-0.39989734
12	0xbebe54b1	-0.3717399
13	0xbecf99bf	-0.40546986
14	0x3ea686e0	0.32524776
15	0xbe3d9c51	-0.18516661
16	0xbec28ce2	-0.3799811
17	0xbdde1943	-0.10844662
18	0x3f96e08f	1.178728
19	0xbe8fa88c	-0.2805828
20	0x3d15e4df	0.03659522
21	0x3d937f9a	0.072020724
22	0x3c5a70b8	0.013332538
23	0xbd0f7e6c	-0.035032675
24	0xbf4a411b	-0.79005593
25	0x3e755da2	0.239615
26	0x3ef82d5d	0.4847211
27	0x3f2953bd	0.661434
28	0xbf23a69e	-0.6392611
29	0x3ec4efe7	0.3846428
30	0xbde910b3	-0.11380138
31	0xbf222426	-0.6333641
32	0x3f859f9b	1.0439333
33	0xbf51b00b	-0.81909245
34	0xbf757771	-0.9588538
35	0x3f3a3d68	0.7274995
36	0x3f31dc06	0.69476354
37	0xbee70698	-0.45122218
38	0x3ef6a577	0.48173115
39	0xbf279b40	-0.6547127
40	0xbf20e2d6	-0.62846124
41	0x3eee36e2	0.46526247
42	0x3f6eb39d	0.9324282
43	0xbf108965	-0.5645965
44	0x3e005b2d	0.12534781
45	0xbe01bdcd	-0.1267006
46	0xbe89c98f	-0.2691159
47	0xbe09fb73	-0.13474827
48	0xbfaa5a33	-1.3308777
49	0xbdb51cdc	-0.08843395
50	0x3e86e280	0.2634468
51	0x3fe25f5a	1.7685349
52	0x3e4ff18c	0.20306987
53	0x3f80decf	1.0067996
54	0x3f627196	0.8845457
55	0x3fca6d82	1.5814669
56	0xbf8051a2	-1.0024912
57	0xbea43208	-0.3206942
58	0xbf23c215	-0.6396802
59	0x3da981db	0.08276721
60	0x3fcd7448	1.6051111
61	0x3f054cf6	0.5207056
62	0xbf04dac7	-0.5189633
63	0xbf008aa2	-0.50211537
64	0xbf175f19	-0.5912948
65	0x3e6f775c	0.23385376
66	0x3e5a8a5a	0.2134184
67	0x3f32e0cf	0.6987428
68	0xbe98e7ff	-0.298645
69	0x3f7d762d	0.99008447
70	0x3f0ebc29	0.5575586
71	0xbea09ea0	-0.3137102
72	0x3fafb1c8	1.372613
73	0xbe8583c0	-0.2607708
74	0x3dd004d2	0.101571694
75	0xbdb43a6e	-0.08800207
76	0x3d1e3c43	0.03863169
77	0xbdb09975	-0.086230196
78	0x3e73be83	0.23803143
79	0xbe5c6664	-0.21523434
80	0xbf20cff2	-0.628173
81	0xbf339b72	-0.70159066
82	0x4000fdd0	2.0154915
83	0x3f2b5aea	0.669356
84	0x3e9e5245	0.30922142
85	0xbf3d05fd	-0.7383726
86	0x3f2bce82	0.6711198
87	0x3f9f6894	1.245379
88	0xbe975ec7	-0.29564497
89	0xbf63b563	-0.8894865
90	0xbf87a1a5	-1.0596205
91	0xbf45260c	-0.7701118
92	0xbe99b560	-0.3002119
93	0xbe8e1fa3	-0.27758512
94	0x3d075a05	0.033044834
95	0x3ec13295	0.37733904
96	0x3e146f90	0.14495683
97	0x3e8cbe14	0.27488768
98	0x3dd92dc3	0.106044315
99	0x3e32a4b5	0.17445643
100	0x3f03a7c0	0.5142784
101	0x3f1bd467	0.60870975
102	0xbf33a011	-0.70166117
103	0x3f6a136d	0.9143589
104	0x3e9ebf3a	0.3100527
105	0xbe0e5dff	-0.13903044
106	0xbefea650	-0.4973626
107	0x3ec189ed	0.37800542
108	0x3e1b3dc4	0.1516028
109	0xbdba6c46	-0.09102683
110	0xbe06c8e4	-0.13162571
111	0x3f5a2f7d	0.8522871
112	0x3d9effd3	0.07763638
113	0x3f195243	0.59891146
114	0x3ecdce67	0.40196535
115	0xbf6c72c1	-0.923626
116	0xbf298b01	-0.6622773
117	0x3eb4b5e9	0.35295036
118	0xbe36045d	-0.17775102
119	0xbeeab3cd	-0.45840302
120	0x3fe2d24d	1.7720429
121	0xbe23bd74	-0.1599024
122	0x3eca2eb9	0.39488772
123	0x3f3d8443	0.7402994
124	0x3e7200ea	0.23633161
125	0x3efa73bc	0.48916423
126	0xbe54cd8c	-0.20781535
127	0xbf3197c2	-0.6937219
128	0xbf80d304	-1.0064397
129	0xbfc144d9	-1.5099136
130	0x3ec4d1a5	0.38441196
131	0xbd36f0d8	-0.04466328
132	0x3edcd057	0.431277
133	0xbf8047ad	-1.0021874
134	0x3c7cabd0	0.015421823
135	0x3e9c0dea	0.30479366
136	0xbf02b7fb	-0.5106198
137	0x3e624b6c	0.22099084
138	0xbe8c6735	-0.2742249
139	0x3f8bab5e	1.0911672
140	0x3f2206e8	0.6329179
141	0x3f615aff	0.88029474
142	0xbebf0f7a	-0.37316495
143	0xbe1c9d72	-0.15294436
144	0x3f8d11a2	1.1021006
145	0xbd4a833a	-0.049441554
146	0xbfb09aab	-1.3797201
147	0x3dba8abc	0.09108493
148	0x3e8f4613	0.2798315
149	0x3e5f0740	0.2178011
150	0x3e706afd	0.23478313
151	0xbee6acdc	-0.45053756
152	0x3fa7df4b	1.3115019
153	0x3eeba5d4	0.46024954
154	0xbdb06083	-0.08612158
155	0x3f6bc2b2	0.92093956
156	0x3f386c15	0.7203992
157	0x3f4b0be3	0.7931501
158	0xbf82192e	-1.0163934
159	0xbddc3a57	-0.10753315
160	0xbfa4c39b	-1.2872194
161	0xbef88bcc	-0.48544157
162	0xbdd58a8a	-0.10426815
163	0xbe4c24c7	-0.19935904
164	0xbfd972ed	-1.6988198
165	0x3f56e926	0.83949506
166	0xbefb300e	-0.490601
167	0x3e2d0ea4	0.16900116
168	0xbe9d3d37	-0.30710766
169	0x3e529e62	0.20568231
170	0x3c8e21d4	0.017350115
171	0x3eafa773	0.3430744
172	0x3d835b17	0.064138584
173	0x3fe4a118	1.7861662
174	0x3f366264	0.7124388
175	0x3f8d2cd8	1.102931
176	0xbfa09131	-1.2544309
177	0x3d7c18dd	0.06154715
178	0x3f38c871	0.7218085
179	0x3f05ffc5	0.523434
180	0x3f3bab53	0.73308295
181	0x3cae0d35	0.021246532
182	0x3f30c935	0.6905702
183	0xbcda2589	-0.026629226
184	0x3fc1b6b6	1.5133884
185	0x3faaf356	1.335551
186	0xbf883be1	-1.0643274
187	0xbf19364c	-0.59848475
188	0x3f652f2e	0.89525115
189	0x401bb653	2.4330032
190	0xbf795f36	-0.97410905
191	0xbeeacd93	-0.45859966
192	0x3fa01d85	1.2509009
193	0x3f1c6d7b	0.61104554
194	0x3f3fc232	0.74905694
195	0x3fbcbb90	1.474474
196	0xbf72e64a	-0.94882643
197	0x3d918733	0.07105865
198	0xbf79b43a	-0.9754063
199	0xbd91ad18	-0.07113093
200	0x3ea059b5	0.3131844
201	0xbdf69faf	-0.12042176
202	0xbe99c175	-0.30030409
203	0xbe9ac041	-0.30224803
204	0xbe4b4722	-0.19851354
205	0x3e790983	0.24320035
206	0xbec91b60	-0.39278698
207	0xbe547f0c	-0.2075159
208	0x3f6c322e	0.9226407
209	0x3d901507	0.07035261
210	0x3e1ec7a6	0.15505847
211	0xbe90ead3	-0.28304157
212	0x3f467fa1	0.77538496
213	0xbdb540df	-0.08850264
214	0xbecabf26	-0.3959896
215	0xbdd6489e	-0.104630694
216	0xbe71dbff	-0.23619078
217	0x3eb13054	0.34607184
218	0xbe4dce3f	-0.20098208
219	0x3f5a2992	0.8521968
220	0xbf89b581	-1.0758516
221	0x3f810919	1.0080901
222	0x3eb4bcc0	0.35300255
223	0xbf39c666	-0.72568357
224	0xbe3585dd	-0.17726846
225	0x3e745e7d	0.2386417
226	0xbfca1cd4	-1.5790048
227	0xbf64c21e	-0.893587
228	0x3d9c003c	0.07617232
229	0xbeebbaf3	-0.46041068
230	0x3ecac5cc	0.39604032
231	0x3e7541a7	0.23950826
232	0x3ee33ce4	0.44382393
233	0x3fbf586f	1.4948863
234	0xbef39abd	-0.47578993
235	0xbe891ba2	-0.26778895
236	0x3ea41811	0.3204961
237	0xbfc2573c	-1.5182872
238	0xbe5b18bb	-0.21396153
239	0xc00e14dd	-2.2200234
240	0x3f21978e	0.6312188
241	0xbe733a01	-0.23752595
242	0x3f72c7c1	0.9483605
243	0x3de3199c	0.11088869
244	0x3cf19a5d	0.029492551
245	0x3e9478a9	0.28998306
246	0x3cc6c10d	0.024261976
247	0xbe43e758	-0.1913122
248	0xbf958910	-1.1682453
249	0xbdcebd9e	-0.1009476
250	0xbce55902	-0.027996544
251	0x3f1063c3	0.56402224
252	0xbf13f6be	-0.57798374
253	0xbf9ca1bd	-1.2236859
254	0xbf91bf66	-1.1386535
255	0xbf2fb7f4	-0.68640065

gru.weight_ih_l0 f4 [384, 128]
0	0x3dd3209c	0.10308954
1	0xbdd2f727	-0.10301047
2	0xbe751379	-0.2393321
3	0x3df9eddc	0.12203571
4	0x3e1f5a4a	0.15561786
5	0xbd1b4242	-0.037904985
6	0x3e99df6b	0.30053267
7	0xbd82e474	-0.0639123
8	0x3e68d08a	0.22735801
9	0xbdd09fea	-0.10186751
10	0xbd83a4cd	-0.06427918
11	0x3ab8acb0	0.0014089551
12	0xbe093360	-0.13398504
13	0xbe1afd17	-0.15135609
14	0x3ebc16d8	0.36736178
15	0xbde9b036	-0.11410563
16	0xbe63c9cb	-0.22244947
17	0xbe564339	-0.20924081
18	0x3dfeb42f	0.12436711
19	0x3d5e0fbd	0.054214228
20	0x3e93d9e8	0.28877187
21	0x3e3b9679	0.1831912
22	0xbde626a3	-0.11237838
23	0xbe278f5e	-0.16363284
24	0xbe590dfa	-0.21196738
25	0xbe5eceb2	-0.21758536
26	0x3e30e468	0.1727463
27	0x3d4b43bf	0.049625155
28	0x3da7003c	0.081543416
29	0x3dc2976a	0.09501536
30	0xbea8260d	-0.3284153
31	0x3cc6b292	0.02425507
32	0x3e08a8bd	0.13345619
33	0xbe9e6c98	-0.30942225
34	0xbdebeb33	-0.1151947
35	0xbda8f679	-0.08250136
36	0x3ec5e4a9	0.38651016
37	0xbe9adcb5	-0.3024651
38	0xbe0aa382	-0.13538936
39	0xbbf136b6	-0.0073612584
40	0xbd5be1c5	-0.053682107
41	0x3d3d8ba4	0.04627575
42	0x3c95d294	0.018288888
43	0xbdc990e8	-0.09842092
44	0xbd8f26a6	-0.069897935
45	0xbd5cae63	-0.053877246
46	0xbd9cfa8f	-0.07664978
47	0x3ec7a513	0.3899313
48	0xbdc7e697	-0.097607784
49	0xbdfface0	-0.12484145
50	0x3b9bd8d5	0.004756073
51	0xbe538179	-0.20654859
52	0xbd93dd7d	-0.0721998
53	0x3e0fd14a	0.14044681
54	0x3ba7f5fc	0.005125759
55	0x3dc2b471	0.09507073
56	0xbe9ad8d0	-0.3024354
57	0xbe2d9594	-0.16951591
58	0x3e58facd	0.21189423
59	0xbd0722e3	-0.032992255
60	0xbdca756c	-0.09885678
61	0xbe00325d	-0.12519212
62	0x3e3672a9	0.17817177
63	0x3e81bd2f	0.25339648
64	0xbe0528db	-0.13003866
65	0xbdb1e573	-0.08686342
66	0xbc2ba953	-0.010477382
67	0xbcf87cbf	-0.030332921
68	0x3d9984e4	0.0749605
69	0x3c2b02f8	0.0104377195
70	0xbc01770d	-0.007901919
71	0x3c570fa3	0.013126287
72	0xbcff2bb7	-0.031148775
73	0x3d64444e	0.055729203
74	0x3e8b9865	0.27264705
75	0xbd86c4db	-0.06580516
76	0xbe216cce	-0.15764162
77	0xbe0fd2b5	-0.14045222
78	0xbd228886	-0.03968098
79	0x3df29f94	0.11846843
80	0x3d672cb5	0.05643912
81	0x3e19027d	0.14942355
82	0x3e715c60	0.23570395
83	0xbd321564	-0.04347743
84	0xbddeb044	-0.10873464
85	0x3e03801d	0.1284184
86	0xbdea2b18	-0.11434001
87	0x3c39b250	0.011334017
88	0xbe09d311	-0.13459422
89	0xbbab591f	-0.00522913
90	0x3e171c07	0.14756785
91	0xbdaeca63	-0.08534696
92	0x3d949d26	0.07256536
93	0x3d93b517	0.072122745
94	0xbda6e221	-0.081485994
95	0xba524ff3	-0.00080227776
96	0x3d1fdc2d	0.039028335
97	0xbdbef18e	-0.09323417
98	0x3e8b54e7	0.27213213
99	0xbe1e5d12	-0.15465191
100	0xbd334018	-0.043762296
101	0xbce06b2a	-0.02739485
102	0xbe0cc9ed	-0.13748904
103	0x3c05a118	0.0081560835
104	0x3e449302	0.19196704
105	0xbe6bd28b	-0.23029535
106	0x3ddcb573	0.10776796
107	0xbb70726a	-0.003668929
108	0x3e043967	0.12912522
109	0x3e030ab0	0.12797046
110	0x3d411b04	0.047144905
111	0x3cecd56e	0.028910365
112	0x3d3b0b01	0.04566479
113	0x3d41ec4f	0.047344502
114	0xbdef20c6	-0.11676173
115	0x3b80edc2	0.003934593
116	0x3e159f21	0.14611484
117	0xbd44548b	-0.04793219
118	0xbe4d763e	-0.20064637
119	0x3da37029	0.07980377
120	0x3bc7b7b7	0.0060948986
121	0xbdd422c9	-0.10358197
122	0x3e553bfc	0.20823663
123	0x3c868afa	0.016423691
124	0x3e208e1e	0.15679213
125	0x3e11424a	0.14185444
126	0x3dd87ef6	0.10571091
127	0xbd3d8688	-0.046270877
128	0xbc8b3676	-0.016993742
129	0xbbbd5f5d	-0.0057791905
130	0xbd553926	-0.052056454
131	0xbd456194	-0.04818876
132	0x3c35bc0e	0.011092199
133	0x3d57bce0	0.05267036
134	0xbe050bcf	-0.12992786
135	0x3e0b0840	0.13577366
136	0xbba81fd8	-0.005130749
137	0xbdcb133a	-0.099157766
138	0x3de8158e	0.11332236
139	0x3d4f4fc3	0.050613176
140	0x3e4bfed8	0.19921434
141	0xbd12de7c	-0.03585671
142	0xbdace388	-0.08441836
143	0x3df9f6ae	0.122052535
144	0xbdabf290	-0.083958745
145	0x3d53efdd	0.051742423
146	0x3e417527	0.18892346
147	0xbe9f1482	-0.31070334
148	0x3e08a3b1	0.13343693
149	0x3dab4d00	0.08364296
150	0xbebed117	-0.37268898
151	0x3e80a814	0.25128233
152	0xbb835a3d	-0.00400856
153	0xbdb8e741	-0.09028483
154	0xbdaf9462	-0.08573224
155	0x3cd7f4be	0.02636182
156	0xbd6cad1b	-0.057782274
157	0xbe4d8eeb	-0.2007405
158	0x3e0fe0eb	0.14050643
159	0x3d2ffdab	0.042966526
160	0x3d548eab	0.05189387
161	0x3e38f45c	0.18061966
162	0x3e6d6143	0.23181634
163	0xbd3efc6e	-0.046627454
164	0xbd61abe1	-0.055095557
165	0xbca8ebb2	-0.0206202
166	0xbe49bc70	-0.1970079
167	0xbd9d3042	-0.0767522
168	0x3c9c76f1	0.019099684
169	0xbdea3188	-0.114352286
170	0xbe4ec8dc	-0.2019381
171	0x3ccae31d	0.0247665
172	0xbd144fce	-0.03620892
173	0x3cfd23be	0.030900832
174	0x3c954ce9	0.01822515
175	0xbd7cbb20	-0.061701894
176	0xbc5bc846	-0.013414448
177	0x3dc3a75e	0.09553407
178	0xbe3abe4a	-0.18236652
179	0xbe05dbd4	-0.13072139
180	0xbdb68711	-0.089124806
181	0xbe8374bd	-0.25675002
182	0xbe6b5300	-0.2298088
183	0xbe441a5a	-0.19150677
184	0x3c8fbf5f	0.017547308
185	0x3d398ed1	0.045302216
186	0x3ca77123	0.02043969
187	0xbe13dfbd	-0.14440818
188	0x3d5d1829	0.05397812
189	0xbe03b6d8	-0.12862718
190	0x3d3b744e	0.045765214
191	0x3d88b7eb	0.066757046
192	0x3d5a3ee7	0.053282645
193	0xbc992a57	-0.018696947
194	0xbdd6aa43	-0.104816936
195	0xbe08bec5	-0.13354023
196	0x3e549dde	0.20763347
197	0xbded2cb9	-0.11580796
198	0xbd551277	-0.052019563
199	0x39ddb67b	0.00042288363
200	0xbe0f1af7	-0.1397513
201	0x3e32b20a	0.17450729
202	0x3dc90303	0.098150276
203	0x3e8ed23b	0.27894768
204	0x3d2b81e0	0.041871905
205	0x3d2cf02b	0.04222123
206	0x3e9303a9	0.2871373
207	0xbd93c7e5	-0.07215861
208	0x3d441638	0.047872752
209	0xbe85f56f	-0.26163813
210	0xbdbc915c	-0.092074126
211	0x3e4ca7d0	0.1998589
212	0xbdc3824f	-0.09546339
213	0xbe1eef67	-0.15521012
214	0x3dde7699	0.108624645
215	0xbe4e0029	-0.20117249
216	0x3e00f2c5	0.12592609
217	0x3e1634a6	0.14668521
218	0x3e23aa3a	0.15982905
219	0xbe03e359	-0.12879695
220	0xbe206599	-0.15663756
221	0x3dbb59cc	0.09147987
222	0xbd25af9e	-0.040450685
223	0x3e6a337a	0.22871199
224	0xbd5a396d	-0.05327742
225	0xbde1e7fd	-0.110305764
226	0xbc2ade71	-0.010429011
227	0x3d9ce013	0.07659926
228	0x3e4a7ee6	0.1977497
229	0xbd0a18f1	-0.033715192
230	0xbda15bec	-0.07878861
231	0xbd8ca874	-0.068680674
232	0x3e2ddf26	0.16979656
233	0x3d7d9d83	0.061917793
234	0x3d3e019f	0.046388265
235	0x3cf22caf	0.029562322
236	0xbe122eeb	-0.1427571
237	0x3cedc5dd	0.029025013
238	0xbdea04a3	-0.11426666
239	0x3d0793e1	0.033100013
240	0x3d9350f9	0.07193179
241	0x3e2e7235	0.17035754
242	0xbdc03ea3	-0.09386947
243	0x3e3a5f84	0.18200499
244	0xbe1eac17	-0.15495335
245	0xbde1f015	-0.1103212
246	0xbc9d965b	-0.019236734
247	0x3bb2352e	0.0054384684
248	0xbb3ef950	-0.00291403
249	0x3e088d0d	0.13335057
250	0x3d8f8347	0.07007461
251	0x3d0e6105	0.034760494
252	0xbda32ff7	-0.07968133
253	0xbe259b81	-0.16172601
254	0x3df8f692	0.121564046
255	0x3d163dec	0.036680147

gru.weight_hh_l0 f4 [384, 128]
0	0xbec28d9e	-0.3799867
1	0x3e34d70e	0.17660162
2	0xbe4d78cc	-0.20065612
3	0xbe55e225	-0.20887049
4	0xbdb83acf	-0.08995592
5	0x3d6df195	0.05809172
6	0xbe772e1e	-0.24138686
7	0x3e65aa6a	0.22428289
8	0x3c87c137	0.016571624
9	0x3e1318d1	0.14364935
10	0xbd91ed29	-0.07125313
11	0x3e36ca19	0.17850532
12	0x3e11d7a6	0.1424242
13	0xbbf1bf5a	-0.007377547
14	0x3e4903ce	0.19630358
15	0xbe8a8b2e	-0.2705931
16	0x3e092e62	0.133966
17	0x3d005d1c	0.031338796
18	0xbe1afef0	-0.15136313
19	0x3ca54d7c	0.020178549
20	0xbe16e373	-0.14735202
21	0x3eff89a5	0.49909702
22	0xbe168b49	-0.1470157
23	0xbc8a6663	-0.016894525
24	0xbe5be5b3	-0.21474342
25	0xbe1f1c28	-0.15538085
26	0x3cf57e33	0.029967403
27	0x3ecebf45	0.40380302
28	0xbe4bf267	-0.19916688
29	0x3e1cf2f7	0.15327059
30	0x3d2626cd	0.040564347
31	0xbcc490da	-0.023994852
32	0x3d94c9ae	0.0726503
33	0x3f05d827	0.5228295
34	0xbe3734be	-0.17891213
35	0xbef95f86	-0.4870569
36	0x3e3ddef5	0.18542083
37	0xbe87b7c0	-0.26507378
38	0x3d14d3dd	0.03633486
39	0xbdb809b9	-0.089862294
40	0xbd5acdad	-0.053418804
41	0xbe849972	-0.2589832
42	0x3d4f147e	0.050556652
43	0x3c69892f	0.0142538985
44	0x3dbf849a	0.093514636
45	0x3ea9971d	0.33123103
46	0x3e744acf	0.23856662
47	0x3d8b8e1e	0.06814216
48	0x3e0c2c95	0.13688882
49	0x3cc300b9	0.023804056
50	0x3e12385c	0.14279312
51	0xbe4535fb	-0.19258873
52	0x3df723ab	0.1206735
53	0xbe84f8b3	-0.25970992
54	0x3e0b754d	0.13618965
55	0x3c1ef164	0.009701107
56	0x3e949123	0.2901698
57	0x3e785704	0.24251944
58	0xbc81961e	-0.015818652
59	0xbe5e3eca	-0.2170364
60	0x3de45807	0.111496024
61	0x3e0e1de7	0.13878594
62	0xbee753f6	-0.45181245
63	0x3c982b4e	0.018575337
64	0x3f02e5e3	0.5113203
65	0xbe323db0	-0.17406344
66	0x3ec2dbb7	0.38058254
67	0x3de922c7	0.113835864
68	0x3e8a071a	0.26958543
69	0xbc975e60	-0.018477619
70	0x3c023582	0.007947328
71	0x3e10870a	0.14114013
72	0x3da4978b	0.08036717
73	0xbe8e37d4	-0.27776968
74	0x3f12e5d1	0.5738192
75	0xbcb9d898	-0.022686288
76	0xbe8aebb4	-0.27132952
77	0x3de3a08b	0.111146055
78	0xbd55a407	-0.05215838
79	0xbec059ea	-0.375686
80	0xbee5a93b	-0.44855675
81	0x3e87c6c1	0.26518825
82	0x3e29742d	0.16548224
83	0x3bd6553d	0.006540923
84	0x3e51f8ba	0.20505038
85	0x3ec06ec4	0.37584507
86	0x3d9b8694	0.07594028
87	0xbd17fa8f	-0.037104186
88	0x3d10f1bd	0.03538679
89	0xbea1535c	-0.3150891
90	0x3e68417b	0.22681229
91	0x3c9592b9	0.01825844
92	0x3d57f47b	0.05272339
93	0x3e02e76d	0.12783594
94	0xbced6ad7	-0.02898161
95	0x3e299dbb	0.16564076
96	0xbe1200ce	-0.1425812
97	0x3e13c7e8	0.14431727
98	0xbd12f1f7	-0.035875287
99	0x3e1bc858	0.15213144
100	0x3ed7f691	0.42180303
101	0xbdfcfd27	-0.123529725
102	0xbd78ba5f	-0.060724612
103	0xbeea86ad	-0.45805874
104	0x3e960a7d	0.29304877
105	0xbe83b1c1	-0.25721553
106	0xbecba872	-0.3977695
107	0x3e8be7d9	0.27325323
108	0xbe0f7911	-0.14011027
109	0x3ebc20a8	0.36743665
110	0xbdab5e1d	-0.0836756
111	0x3daf7761	0.085676916
112	0x3e272704	0.16323477
113	0xbea7d038	-0.32776046
114	0xbe686f64	-0.22698742
115	0x3e2848ab	0.1643397
116	0x3ca877f7	0.020565016
117	0x3eae6383	0.34060296
118	0xbea7248e	-0.32645077
119	0x3eda7bcf	0.42672583
120	0xbe5e1fa7	-0.21691762
121	0x3ecedb94	0.404019
122	0x3cc8dc23	0.024519032
123	0xbdfa1357	-0.1221072
124	0x3dc34aa4	0.09535721
125	0xbe44a323	-0.19202857
126	0x3d42a412	0.04751975
127	0xba16be25	-0.00057503796
128	0xbdffb93e	-0.12486504
129	0xbd28196d	-0.041039873
130	0xbf1ac3a0	-0.6045475
131	0x3e2c9c5c	0.16856521
132	0xbd8ec0bd	-0.06970356
133	0xbd8f815e	-0.07007097
134	0x3eac1f62	0.33617693
135	0xbd120859	-0.035652492
136	0xbe9899b2	-0.2980476
137	0x3e58feea	0.21190992
138	0x3d573465	0.0525402
139	0x3dfc099a	0.12306519
140	0xbd62057e	-0.05518102
141	0x3e8d5162	0.27601153
142	0x3e5973fc	0.21235651
143	0x3efb46b7	0.4907739
144	0x3bc82a76	0.0061085774
145	0x3e8025d8	0.25028872
146	0xbe92423e	-0.28566164
147	0xbdc6d64b	-0.09708842
148	0x3e286738	0.16445625
149	0x3e9fdd11	0.31223348
150	0x3e1b1225	0.1514364
151	0x3e579e11	0.21056391
152	0x3eb65ffb	0.35620102
153	0x3e6b1400	0.22956848
154	0xbc3b0e1a	-0.011416936
155	0xbd9f1c35	-0.07769052
156	0xbed00f08	-0.40636468
157	0xbe552820	-0.20816088
158	0xbdf9b10b	-0.121919714
159	0x3cfa743b	0.030573001
160	0x3e0c887e	0.13723943
161	0x3ea3a086	0.31958407
162	0xbccbeb23	-0.024892395
163	0xbd462bbc	-0.048381552
164	0xbd9f62ab	-0.07782491
165	0x3e6ee125	0.23328073
166	0xbee4a6b4	-0.44658434
167	0x3c9a085b	0.018802812
168	0x3e9c6828	0.30548215
169	0x3e504879	0.20340146
170	0x3e495e06	0.19664773
171	0xbe09c994	-0.13455802
172	0xbd4ea759	-0.050452564
173	0xbc1286bf	-0.008943259
174	0x3ef62bd7	0.48080322
175	0x3e0816bd	0.13289924
176	0xbdade3c0	-0.084907055
177	0x3e3f441b	0.18678324
178	0x3caa06d3	0.020755207
179	0xbe463d6f	-0.19359373
180	0xbec1f5a0	-0.3788271
181	0xbdc18447	-0.09449058
182	0x3e961899	0.29315642
183	0x3c617fd7	0.01376339
184	0xbda7b1eb	-0.08188232
185	0xbd29e3fe	-0.041477196
186	0x3e8de6a4	0.27715027
187	0x3e01fe79	0.1269473
188	0xbe422f1f	-0.18963288
189	0x3e7a3ed0	0.24438024
190	0xbeb622f9	-0.35573557
191	0x3eaf7bc3	0.3427411
192	0xbd15ffb9	-0.03662083
193	0xbe954a72	-0.2915836
194	0x3e431dbb	0.1905431
195	0x3f032a3f	0.5123634
196	0x3d8140fe	0.063112244
197	0x3cc713c9	0.024301426
198	0xbe545bfa	-0.20738211
199	0xbe4eb698	-0.20186841
200	0xbe7ecf23	-0.24883704
201	0x3d86ef3b	0.06588598
202	0x3e714673	0.2356203
203	0xbea11de1	-0.31468108
204	0x3d1835b4	0.03716059
205	0xbeb5ad7c	-0.3548392
206	0xbdbc64c5	-0.09198908
207	0xbdb6ec2e	-0.089317665
208	0x3e25fcc2	0.162097
209	0xbd441e43	-0.047880422
210	0x3eb7d7e4	0.359069
211	0xbc4fc29f	-0.012680679
212	0x3d4646e3	0.048407447
213	0xbeb62358	-0.3557384
214	0xbde852d6	-0.11343925
215	0xbdaab154	-0.08334604
216	0xbdd26a49	-0.102741785
217	0x3d0a9fde	0.033843867
218	0x3cef5c17	0.029218717
219	0xbe3bc947	-0.183385
220	0x3ddea502	0.108713165
221	0x3e3a1926	0.18173656
222	0x3e2daf1c	0.1696133
223	0xbe6d92fd	-0.23200603
224	0xbcd348bb	-0.025791517
225	0xbce6b7cb	-0.028163811
226	0x3efbeed6	0.49205655
227	0x3e7ffd22	0.24998906
228	0x3f2447a3	0.6417181
229	0x3e10e0ca	0.1414825
230	0x3eaeeb14	0.34163725
231	0x3e6339cb	0.22190015
232	0xbe7e926d	-0.24860545
233	0x3d6c302c	0.057663128
234	0xbc990778	-0.01868032
235	0xbd99b731	-0.07505644
236	0xbca36660	-0.019946277
237	0xbdbeaf25	-0.0931075
238	0x3eaa585a	0.33270532
239	0xbe61ba1c	-0.22043651
240	0xbe8dc595	-0.27689806
241	0x3dd14b7c	0.102194756
242	0x3e2f11cc	0.17096633
243	0x3d02f82a	0.03197495
244	0x3ed70a8d	0.42000237
245	0xbee99ba5	-0.4562656
246	0x3d925213	0.07144561
247	0xbe3438b8	-0.17599761
248	0xbe920fa6	-0.28527564
249	0xbd6177fe	-0.055046074
250	0xbeef685d	-0.4675931
251	0x3e5203f5	0.20509322
252	0xbe913acc	-0.2836517
253	0x3e5a40e2	0.21313813
254	0xbe0c07f2	-0.13674906
255	0x3e9ce1ce	0.30641025

gru.bias_ih_l0 f4 [384]
0	0x3e2bc259	0.16773356
1	0x3dd2df78	0.102965295
2	0x3e0408fd	0.12894054
3	0x3e3114d4	0.17293102
4	0x3caacd2f	0.020849792
5	0xbdb5a4ec	-0.08869347
6	0x3e0d5f76	0.13805947
7	0xbdfe2e82	-0.124112144
8	0x3e4244c6	0.18971547
9	0x3c91d222	0.017800394
10	0x3dcd2969	0.10017664
11	0x3e475f74	0.19470006
12	0x3e186e89	0.14885916
13	0x3c4dc7a9	0.01255981
14	0x3aaf7724	0.0013386947
15	0xbdf9448c	-0.121712774
16	0x3dce82ca	0.1008354
17	0x3e5bc675	0.21462424
18	0x3e0b193f	0.1358385
19	0x3ddb7cf6	0.10717194
20	0xbc9bd6ee	-0.019023385
21	0x3e9ba5af	0.30399844
22	0x3d3d230a	0.046175994
23	0xbac98d5f	-0.0015377215
24	0x3e38dea7	0.18053685
25	0x3dbc44f0	0.09192836
26	0x3d9e5dec	0.07732758
27	0xbcfc5031	-0.030799957
28	0xbe020635	-0.1269768
29	0x3d69b8b5	0.057060916
30	0x3d9ee3d7	0.07758301
31	0x3e185b8d	0.14878674
32	0x3c2d7a6f	0.0105882725
33	0x3e0235ec	0.12715882
34	0x3d250d24	0.040295735
35	0x3e505867	0.20346223
36	0x3db31002	0.087432876
37	0x3d82023c	0.063480824
38	0xbe251b81	-0.16123773
39	0x3db8fe43	0.090328716
40	0x3e8dc34b	0.2768806
41	0x3e897cd4	0.2685305
42	0x3dd9e89b	0.10640069
43	0x3e4386b1	0.1909435
44	0x3ea04fd2	0.31310898
45	0x3d8632d7	0.06552666
46	0x3e4f96ad	0.20272322
47	0xbda3a196	-0.079898044
48	0x3d431bf7	0.04763409
49	0x3e337cb4	0.17528039
50	0xbc23ce85	-0.009997969
51	0x3d5e312f	0.054246124
52	0xbda4b3cc	-0.08042106
53	0x3e7fd4ec	0.24983567
54	0x3d7e02e4	0.062014475
55	0x3e085b83	0.13316159
56	0x3d2de74f	0.04245692
57	0x3ded8e48	0.115994036
58	0x3e61c0b1	0.22046162
59	0xbca93686	-0.020655882
60	0x3dc9469e	0.09827922
61	0xbd774285	-0.060366172
62	0x3d839023	0.06423976
63	0xbdceef36	-0.101042196
64	0x3d373b9a	0.044734575
65	0x3e61990b	0.22031038
66	0x3eb0d02a	0.34533817
67	0xbca9cfd1	-0.020728977
68	0x3e2480cb	0.16064756
69	0x3e1a5781	0.15072443
70	0x3e2e1abf	0.1700239
71	0x3ddc2040	0.10748339
72	0xbded7516	-0.11594598
73	0x3dacc2d8	0.08435601
74	0x3e228da1	0.1587434
75	0x3e0d6733	0.13808899
76	0x3cfbd3e9	0.030740695
77	0x3e54d31c	0.20783657
78	0x3d6210a1	0.05519164
79	0x3d12c02f	0.03582781
80	0x3e0d0aa1	0.13773586
81	0x3d3fb0d1	0.046799485
82	0x3e987bda	0.2978199
83	0x3e21d044	0.15802103
84	0xbd55f401	-0.052234653
85	0x3dddbda9	0.108271904
86	0x3d950904	0.0727711
87	0x3e5e18e3	0.21689181
88	0xbe38be7a	-0.18041411
89	0x3c296c74	0.010340799
90	0xbd650ffd	-0.05592345
91	0xbd1d1e96	-0.038359247
92	0x3e49dc55	0.19712956
93	0x3d630b6e	0.055430822
94	0x3e1f7325	0.15571268
95	0x3e48c795	0.19607385
96	0x3dcc7664	0.09983519
97	0x3d80fc2e	0.062980995
98	0x3cd95ca8	0.02653344
99	0x3d94f745	0.072737254
100	0x3e1f65f3	0.15566234
101	0x3e340317	0.17579304
102	0x3e124f29	0.1428801
103	0x3ea77dcc	0.32713163
104	0x3d6005b7	0.05469295
105	0x3ce3f435	0.027826408
106	0xbd2f6052	-0.042816468
107	0x3de1c3ee	0.11023699
108	0x3d3d57ea	0.04622642
109	0x3e59635b	0.21229307
110	0xbd01d8e0	-0.03170097
111	0x3e4f3464	0.20234829
112	0x3e2cd8fa	0.16879645
113	0x3d1cdc59	0.038296077
114	0x3e470972	0.19437197
115	0x3ba1f660	0.0049427003
116	0x3d98c6de	0.07459806
117	0xbd9d976b	-0.07694896
118	0x3da288ad	0.07936225
119	0xbd3692e1	-0.04457367
120	0x3c8c063a	0.017092813
121	0xbd8ce142	-0.06878902
122	0x3d49241e	0.04910671
123	0x3d4d4140	0.050111055
124	0xbdeb00a2	-0.1147473
125	0xbb094b9e	-0.0020949612
126	0x3dd5a9e4	0.10432795
127	0x3ce9f997	0.028561397
128	0x3e4ac50d	0.19801731
129	0xbcb8724b	-0.022515437
130	0xbdbcfe36	-0.092281744
131	0x3d8a81cd	0.06763039
132	0xbdb0e1a4	-0.086367875
133	0x3dfb6c6a	0.12276538
134	0xbcb6c764	-0.022311874
135	0x3d0b2445	0.033970136
136	0xbe015f80	-0.12634087
137	0x3bebfe02	0.007201911
138	0xbdeba112	-0.11505331
139	0xbe4f4ffc	-0.20245355
140	0xbe181b50	-0.14854169
141	0x3abc620b	0.0014372481
142	0x3db81b04	0.08989528
143	0xbe1c99bd	-0.15293022
144	0xbde74245	-0.11291937
145	0xbe080935	-0.13284762
146	0xbcfe184d	-0.031017447
147	0xbe83691c	-0.2566613
148	0x3de4753e	0.11155175
149	0x3ba0ce18	0.004907381
150	0x3e01870a	0.1264917
151	0x3c6e155f	0.014531462
152	0x3dcd4cc1	0.10024405
153	0x3d8c5dc0	0.06853819
154	0xbdf6e8a3	-0.12056091
155	0x3e0f4c0c	0.13993853
156	0xbd71d1b1	-0.059037868
157	0xbdc1ec1d	-0.09468863
158	0xbe06afce	-0.13153002
159	0xbe3ff867	-0.18747102
160	0x3d487fbe	0.04894995
161	0x3d3f5e3e	0.046720736
162	0xbd8bc098	-0.06823844
163	0x3e0634e4	0.13106114
164	0xbcbab685	-0.02279211
165	0x3d891355	0.066931404
166	0xbec78ac5	-0.3897306
167	0xbeac72d6	-0.33681363
168	0x3d795ea8	0.060881287
169	0xbceb7d43	-0.028746253
170	0xbb31ccb5	-0.0027130072
171	0x3d7a48e8	0.061104685
172	0xbdfac4ed	-0.12244592
173	0xbdf41e7d	-0.11919878
174	0xbe1f72dc	-0.15571159
175	0xbd31afd8	-0.04338059
176	0xbdbbd2bf	-0.09171056
177	0xbe197269	-0.1498505
178	0x3e4f81b3	0.2026432
179	0xbd7918f6	-0.06081482
180	0xbcab68d4	-0.02092401
181	0xbdbf982d	-0.09355197
182	0xbead5cf3	-0.33859977
183	0xbde5b665	-0.112164296
184	0xbbf92913	-0.0076037734
185	0x3d81bad7	0.06334465
186	0xbd845eea	-0.06463416
187	0x3cc09399	0.02350788
188	0xba5e495e	-0.00084795605
189	0x3d88f942	0.06688167
190	0x3c1b65a6	0.009484684
191	0x3d11bb7f	0.0355792
192	0xbe81726b	-0.25282606
193	0xbe38bab7	-0.18039976
194	0xbc664482	-0.0140544195
195	0xbd9aac74	-0.07552424
196	0xbddf725e	-0.10910486
197	0x3ca0f3ea	0.019647557
198	0xbdd685dc	-0.104747504
199	0x3dfbb638	0.12290615
200	0xbd8c6522	-0.06855227
201	0xbddc4068	-0.10754472
202	0xbe9f57c1	-0.31121638
203	0xbd1cd00d	-0.03828435
204	0x3e109367	0.1411873
205	0xbdea44f2	-0.114389315
206	0x3d4b9c69	0.04970971
207	0x3d223ab7	0.039606776
208	0xbe56ab78	-0.20963848
209	0x3c85a2b4	0.016312934
210	0xbcb10a42	-0.021611337
211	0x3dd8ece0	0.10592055
212	0xbdd237de	-0.10264562
213	0xbe35c745	-0.17751797
214	0xbdbce441	-0.092232235
215	0xbd2a7675	-0.041616876
216	0xbe414fa9	-0.18878044
217	0x3cb1eaeb	0.021718463
218	0x3ded9eb9	0.116025396
219	0x3d86b707	0.065778784
220	0xbdfb78e0	-0.122789145
221	0x3e2d609b	0.16931383
222	0xbe6767b7	-0.22598158
223	0xbccbb7eb	-0.024867972
224	0xbe3919cc	-0.18076247
225	0x3e31bb4c	0.17356604
226	0xbca8918a	-0.020577211
227	0x3e21565b	0.15755598
228	0xbd910743	-0.07081463
229	0xbe731be7	-0.23741113
230	0xbec5820d	-0.38575783
231	0xbdedf9bb	-0.11619898
232	0xbd6b39a5	-0.05742802
233	0xbcd50ce7	-0.026007129
234	0xbd9a9959	-0.0754878
235	0x3d46d6ad	0.048544575
236	0x3e56e494	0.20985633
237	0xbd044ab5	-0.03229781
238	0x3dc2a388	0.09503847
239	0xbd723d53	-0.059140515
240	0xbd2457bf	-0.040122744
241	0xbe7b4aa9	-0.245402
242	0xbd7dbbb5	-0.06194659
243	0xbe527672	-0.20552996
244	0xbe5f0b9e	-0.21781775
245	0xbe0f3b6f	-0.13987516
246	0x3d75d846	0.060020708
247	0xbe203bf2	-0.15647867
248	0xbd2840ac	-0.0410773
249	0xbe15f497	-0.14644085
250	0xbd7b1306	-0.06129744
251	0x3ca344ef	0.019930331
252	0x3d491339	0.049090598
253	0x3e1e6676	0.15468773
254	0x3dba2a43	0.09090092
255	0xbc51db78	-0.012808673

gru.bias_hh_l0 f4 [384]
0	0x3e27cb6c	0.16386193
1	0x3e13135f	0.14362858
2	0x3e4e3b88	0.20139897
3	0x3dd30d66	0.1030529
4	0x3d972d7d	0.07381723
5	0xbd8e6c2c	-0.06954226
6	0x3deab8df	0.114610426
7	0xbd646458	-0.055759758
8	0x3d22410e	0.039612822
9	0xbdbefa71	-0.09325112
10	0x3e7c34ab	0.24629466
11	0x3dc817f2	0.09770192
12	0x3e16a7bc	0.14712423
13	0xbd19ec00	-0.037578583
14	0x3da40f55	0.08010737
15	0xbdb86f6b	-0.09005626
16	0x3e31141c	0.17292827
17	0x3e23c779	0.15994062
18	0x3e07b7a5	0.13253649
19	0x3dd29d0b	0.1028386
20	0x3d36470c	0.04450135
21	0x3e84dfcf	0.25952002
22	0x3d44af61	0.048018817
23	0x3c41d1df	0.011829822
24	0x3daebc4a	0.08532007
25	0x3df2a2fa	0.118474916
26	0xbb68add0	-0.003550399
27	0x3e0f65ce	0.14003679
28	0xbb5701e1	-0.0032807516
29	0xbda67b03	-0.081289314
30	0x3dbb53fd	0.09146879
31	0x3e17f20a	0.14838424
32	0x3dab5e94	0.08367649
33	0x3d69483b	0.05695365
34	0x39c6a63b	0.00037889354
35	0x3e0b6292	0.1361182
36	0x3d8fa04e	0.070129976
37	0x3d7069e6	0.058694743
38	0xbe184740	-0.1487093
39	0xbcb31248	-0.021859303
40	0x3e3cb617	0.18428837
41	0x3e184a78	0.14872158
42	0x3dbe4e33	0.09292259
43	0x3dd90ca7	0.10598116
44	0x3e8bd81a	0.2731331
45	0xbc72a443	-0.014809671
46	0x3dd16af2	0.10225476
47	0xbd0fc531	-0.035100166
48	0x3c9202cb	0.017823597
49	0x3e4f80eb	0.20264022
50	0x3da8b423	0.08237483
51	0x3df36db3	0.11886158
52	0x3cc39e62	0.023879234
53	0x3de83a25	0.11339215
54	0x3c770e08	0.015079029
55	0x3df26303	0.11835291
56	0xbc51ce9e	-0.012805609
57	0x3e033686	0.12813768
58	0x3e6d0c2f	0.23149179
59	0x3d15ded7	0.03658947
60	0x3d457324	0.04820551
61	0x3d95a005	0.07305912
62	0x3e00cc87	0.12578021
63	0xbd09be4e	-0.033628754
64	0x3ceb5bf3	0.028730368
65	0x3e6fa7d1	0.2340386
66	0x3ea3a04b	0.3195823
67	0xbd3b2e11	-0.04569823
68	0x3e06f92e	0.13180992
69	0x3d8977ef	0.06712329
70	0x3dc0f6f4	0.094221026
71	0x3dd2f65b	0.10300895
72	0xbd9d0275	-0.07666484
73	0x3dcdd3a3	0.10050132
74	0x3e786c81	0.24260141
75	0x3d30564c	0.04305105
76	0x3dc22f16	0.09481637
77	0x3e200fdc	0.1563105
78	0x3e50175c	0.20321411
79	0xbd2e8cc4	-0.042614713
80	0x3dfd85a1	0.12379003
81	0x3ca128fb	0.019672861
82	0x3e0e1f74	0.13879186
83	0x3e5d25d5	0.21596463
84	0xbd9ced89	-0.07662494
85	0x3e1d8f76	0.15386757
86	0x3e2edd78	0.17076671
87	0x3e60d624	0.21956688
88	0xbe85a5ec	-0.2610315
89	0xbbc7defc	-0.00609958
90	0xbd3e62ec	-0.046481058
91	0xbde8c6c4	-0.113660365
92	0x3dedcf34	0.116117865
93	0xbd30707e	-0.04307603
94	0x3e3b063f	0.18264101
95	0x3e23eafe	0.16007611
96	0x3dff5cd1	0.12468875
97	0x3d0487e5	0.03235616
98	0x3dcf9a09	0.10136802
99	0x3da1499d	0.07875369
100	0x3e3c62f8	0.18397129
101	0x3e143c79	0.14476193
102	0x3e2b3337	0.16718756
103	0x3e890fd2	0.26769882
104	0xbdb3f8e1	-0.08787704
105	0x3def32f2	0.11679639
106	0xbdc73f25	-0.09728841
107	0x3e1ae9b7	0.15128218
108	0xbcfbfdbe	-0.030760642
109	0x3e13bda3	0.1442781
110	0x3d8587c3	0.06520035
111	0x3e64261d	0.22280164
112	0x3e2d3999	0.16916503
113	0x3d165c9a	0.036709405
114	0x3e5c595c	0.21518463
115	0x3c8ea44f	0.017412333
116	0x3d91b4b1	0.07114542
117	0xbd66321d	-0.056200135
118	0x3c01c3f4	0.007920254
119	0x3d70d299	0.05879459
120	0x3c8c36c0	0.01711595
121	0x3d999e67	0.07500916
122	0x3d4138d4	0.047173336
123	0x3da9a4bc	0.08283374
124	0xbdd936d6	-0.10606162
125	0xbde0134c	-0.109411806
126	0xbca00764	-0.019534774
127	0x3d21d055	0.03950532
128	0x3e1bfe8e	0.15233824
129	0xbde5363c	-0.11191985
130	0xbd472f51	-0.04862911
131	0xbda6a9cc	-0.08137855
132	0xbd6167d0	-0.055030644
133	0xba73c009	-0.000929833
134	0x3ca252aa	0.019814808
135	0xbce175f4	-0.027522065
136	0xbdeea211	-0.116520055
137	0xbd17680c	-0.03696446
138	0xbe6eec3e	-0.23332307
139	0xbd6b81e7	-0.05749693
140	0xbd4e2b6b	-0.050334375
141	0x3ce50e5e	0.027960952
142	0xbb131426	-0.002244243
143	0xbc4736ee	-0.012159092
144	0xbda7bd8d	-0.08190451
145	0xbe0b2c82	-0.13591197
146	0xbe009b7e	-0.12559316
147	0xbe67a367	-0.22620927
148	0x3db9efe2	0.09078957
149	0x3cf2f89f	0.029659567
150	0x3e033501	0.12813188
151	0x3c29f7c7	0.010374016
152	0x3d164354	0.036685303
153	0x3d96dee9	0.073667355
154	0xbe10e416	-0.14149508
155	0x3db0bf5c	0.08630249
156	0xbd36afce	-0.044601254
157	0xbe5ac8af	-0.21365617
158	0x3bd186a4	0.0063942242
159	0xbe72f64f	-0.23726772
160	0xbdb6efd6	-0.08932464
161	0x3c11d585	0.008901005
162	0xbde882ed	-0.11353097
163	0x3d126305	0.035738964
164	0xbcec832c	-0.028871141
165	0xbc16c0e4	-0.009201262
166	0xbe943658	-0.2894771
167	0xbe54ae1c	-0.20769542
168	0xbd9659fc	-0.07341382
169	0xbe260196	-0.16211542
170	0x3d45052a	0.048100628
171	0x3dcaa508	0.098947585
172	0xbdf21401	-0.11820222
173	0xbe47f2cc	-0.19526213
174	0xbd82a966	-0.063799664
175	0xbd7e90c4	-0.062149778
176	0xbdcfe7c4	-0.10151628
177	0xbdcc9af2	-0.09990491
178	0x3e5c512d	0.21515341
179	0xbe39c067	-0.18139802
180	0xbc55c2a5	-0.013046895
181	0xbe25fb4f	-0.16209148
182	0xbe71e6e6	-0.23623237
183	0xbdf56c14	-0.11983505
184	0x3dd6830e	0.104742154
185	0x3d14472b	0.036200684
186	0xbd307f38	-0.043090075
187	0x3ce00037	0.027343852
188	0xbbe572e3	-0.007002221
189	0xbce3194d	-0.027722025
190	0xbcd7f0b6	-0.026359897
191	0xbd122357	-0.035678234
192	0xbe637555	-0.22212727
193	0xbe0a849b	-0.13527147
194	0xbe1eb476	-0.15498528
195	0x3b911b34	0.0044282917
196	0xbe5694fa	-0.20955268
197	0x3d4775d3	0.04869635
198	0xbd1a3c84	-0.03765537
199	0x3e3bdc0b	0.18345658
200	0xbe1ec69f	-0.15505455
201	0xbe435f6b	-0.19079368
202	0xbe81e161	-0.25367263
203	0xbdfb5406	-0.122718856
204	0x3d263435	0.040577132
205	0xbd8c830e	-0.06860934
206	0x3d9f4dc2	0.07778503
207	0xbcd9bcb8	-0.026579246
208	0xbe68c42d	-0.22731085
209	0x3dacf34b	0.08444842
210	0xbc265aa8	-0.01015345
211	0x3dbf69e5	0.0934637
212	0xbdc34aa2	-0.095357195
213	0xbe8f3e72	-0.2797733
214	0x3d4138ce	0.047173314
215	0xbcb75545	-0.022379527
216	0xbe28222d	-0.16419287
217	0xbdb7f89d	-0.08982966
218	0x3c27de3b	0.010245855
219	0xbd576451	-0.052585904
220	0xbe71fea6	-0.23632297
221	0x3d5d779c	0.054069147
222	0xbe494efd	-0.19659038
223	0xbd1ad76c	-0.0378031
224	0xbdbc280d	-0.091873266
225	0x3e38ad3f	0.18034838
226	0x3d95eaa7	0.07320147
227	0x3e0686e5	0.13137396
228	0x3d2b8094	0.04187067
229	0xbe37491b	-0.17898981
230	0xbe82b756	-0.255305
231	0xbd9c7dd0	-0.07641184
232	0x3b5f5ea7	0.0034083517
233	0xbc44bc56	-0.012007793
234	0x3d35e548	0.044408113
235	0x3e014e6b	0.1262757
236	0x3ddc0a60	0.107441664
237	0xbe226c5f	-0.15861653
238	0x3ce2195e	0.027599987
239	0xbe144151	-0.14478041
240	0xbc327f6e	-0.010894639
241	0xbe8c56d7	-0.27410004
242	0xbd031844	-0.032005563
243	0xbe0ff443	-0.14058022
244	0xbe37443b	-0.17897122
245	0xbde7b920	-0.11314607
246	0x3d34c85a	0.044136383
247	0xbe1f0174	-0.15527898
248	0xbd8261c4	-0.063663036
249	0xbe028d20	-0.12749147
250	0xbcaccd23	-0.02109391
251	0xbd9cac8f	-0.076501004
252	0xbc570e5b	-0.013125981
253	0x3cc78a4c	0.024357937
254	0x3d7ffd50	0.062497437
255	0xbdd52d86	-0.104090735

gru.weight_ih_l1 f4 [384, 128]
0	0x3ddecac9	0.10878522
1	0x3e97c33e	0.29641145
2	0xbce4f2d3	-0.027947819
3	0xbd81b8d2	-0.0633408
4	0xbdd9e452	-0.10639252
5	0xbc35785a	-0.011076057
6	0xbe24f252	-0.16108063
7	0x3d70468a	0.05866102
8	0xbcf98cc9	-0.03046264
9	0xbe549560	-0.20760107
10	0xbdf0639b	-0.11737748
11	0xbdbdfd17	-0.09276789
12	0xbda842bc	-0.082158536
13	0xbd1a63f4	-0.03769298
14	0x3d172955	0.03690465
15	0xbe7a7f44	-0.2446261
16	0x3d6cbcc5	0.057797212
17	0xbe9cf40e	-0.3065495
18	0x3daf483d	0.085587
19	0xbd870eb7	-0.065946035
20	0x3d0f11fa	0.034929253
21	0xbe382683	-0.17983441
22	0xbe3005af	-0.17189668
23	0x3e3f171c	0.1866116
24	0xbd772ee7	-0.060347464
25	0xbe66ef8f	-0.22552322
26	0xbde367bb	-0.111037694
27	0xbd74e87a	-0.05979202
28	0x3ea83260	0.32850933
29	0xbdf6a795	-0.120436825
30	0xbda7443d	-0.08167312
31	0xbdc358d0	-0.09538424
32	0x3d699388	0.057025462
33	0x3e240c0a	0.16020218
34	0xbe1f773b	-0.15572827
35	0x3e58228e	0.21106932
36	0xbd31632a	-0.04330746
37	0xbe63dc18	-0.22251928
38	0x3db2312c	0.08700785
39	0xbdc2a199	-0.095034786
40	0x3d8442c1	0.06458045
41	0xbe08f8c7	-0.13376151
42	0x3cd101e2	0.025513593
43	0x3ca63888	0.020290628
44	0x3e38bd9a	0.18041077
45	0xbdab246d	-0.08356557
46	0x3dd5ad0e	0.10433398
47	0xbd23a935	-0.03995629
48	0xbe5c1787	-0.2149335
49	0x3df5ab4a	0.119955614
50	0x3c9f808c	0.019470476
51	0x3ea34f36	0.3189637
52	0x3b828e32	0.003984236
53	0x3ebb36e7	0.36565325
54	0x3cbe1a22	0.02320582
55	0xbe1901bb	-0.14942066
56	0x3e0df43c	0.138627
57	0x3e77e9dc	0.24210304
58	0xbe679d33	-0.2261856
59	0xbe9809e6	-0.29695052
60	0x3d53c3cc	0.0517004
61	0xbcc09644	-0.023509152
62	0x3d1c2052	0.03811676
63	0x3d1ddb2d	0.0385391
64	0x3e9080b7	0.28223202
65	0xbe57f69d	-0.21090169
66	0x3db8fcef	0.09032618
67	0x3cac9a3e	0.021069642
68	0xbe1bf3d6	-0.15229735
69	0xbddb1e2a	-0.10699113
70	0x3d4ecc4b	0.050487798
71	0xbc4e4961	-0.012590737
72	0xbe2ae064	-0.1668716
73	0xbdf78a76	-0.12086956
74	0xbe9a9a35	-0.30195776
75	0x3dc46336	0.095892355
76	0xbb97c6cd	-0.004631853
77	0x3da2f29b	0.079564296
78	0x3dc8f41e	0.09812187
79	0xbe94e94f	-0.2908425
80	0x3e0b914a	0.13629642
81	0xbe832050	-0.2561059
82	0xbe018404	-0.12648016
83	0xbde12188	-0.10992724
84	0x3e318060	0.17334127
85	0x3e947e1d	0.29002467
86	0xbc409479	-0.011754149
87	0xbdfe1117	-0.124056034
88	0xbdd70f83	-0.105010055
89	0x3e43ff9f	0.1914048
90	0x3b0766df	0.0020660681
91	0xbe4a7788	-0.1977216
92	0x3cd825e0	0.026385248
93	0x3d637db6	0.05553981
94	0x3e60354c	0.21895331
95	0x3e16262d	0.14663
96	0xbd26bb48	-0.04070595
97	0x3e62c640	0.22145939
98	0xbd6aaac3	-0.057291757
99	0xbe15b347	-0.1461917
100	0x3e9aa16c	0.3020128
101	0xbe32898c	-0.17435282
102	0x3dcdf0aa	0.10055669
103	0xbc708298	-0.0146795735
104	0x3bfcc4ce	0.0077138906
105	0x3e04c662	0.12966302
106	0xbd1afa51	-0.037836377
107	0xbd8b9d95	-0.06817166
108	0x3b5e99af	0.0033966114
109	0xbe2beb5b	-0.16789
110	0xbe94747f	-0.2899513
111	0x3cfe575d	0.031047517
112	0x3de066cc	0.10957107
113	0xbb80f077	-0.0039349156
114	0x3e11162b	0.14168613
115	0x3dc74ac5	0.09731058
116	0xbd86bd6e	-0.065790996
117	0xbeba6a1a	-0.36409074
118	0x3d08d588	0.033406764
119	0xbebf6110	-0.3737874
120	0x3e9bed5f	0.30454537
121	0xbe4f70c1	-0.20257856
122	0xbe791d7c	-0.24327654
123	0x3ea2d98a	0.31806594
124	0xbcaf21f3	-0.021378493
125	0x3da09af0	0.07842052
126	0x3d7c69e8	0.061624438
127	0x3e992684	0.29912198
128	0xbe5663e3	-0.20936541
129	0x3ce8d237	0.02842055
130	0x3ddb20c0	0.10699606
131	0x3dc45e20	0.095882654
132	0xbe3781ef	-0.1792066
133	0x3e6293bf	0.22126673
134	0x3edcfe0a	0.43162566
135	0xbc945818	-0.018108413
136	0x3ea103fa	0.31448346
137	0x3e264329	0.16236557
138	0x3de722c1	0.11285926
139	0xbd842c3c	-0.064537495
140	0xbe65caf6	-0.22440705
141	0xbee5ac50	-0.44858027
142	0x3e8bed33	0.27329406
143	0xbd8887bd	-0.06666515
144	0x3e671f7e	0.22570607
145	0xbba21277	-0.004946049
146	0x3e128a0d	0.14310475
147	0xbd087871	-0.033317987
148	0x3dd89cf1	0.10576809
149	0xbe0eab43	-0.13932519
150	0x3d818ddf	0.06325888
151	0x3e7157e6	0.23568687
152	0x3eadccca	0.33945304
153	0x3e2667e0	0.16250563
154	0x3d42e06b	0.047577303
155	0xbd31faa4	-0.04345192
156	0xbe49e533	-0.19716339
157	0xbe1d757e	-0.15376851
158	0x3dc0f344	0.09421399
159	0xbe568e0c	-0.20952624
160	0xbe70a920	-0.23502016
161	0x3d822288	0.063542426
162	0x3e243d54	0.1603902
163	0xbe91c075	-0.28467146
164	0x3d7df2af	0.06199902
165	0xbe4bd215	-0.19904359
166	0xbca9f58a	-0.020746965
167	0xbd796ca6	-0.06089463
168	0x3eead3e2	0.4586478
169	0x3d6f0d97	0.05836257
170	0x3e437395	0.1908706
171	0xbd74bcb7	-0.059750285
172	0x3d3b3df6	0.045713387
173	0xbe32156f	-0.17390989
174	0xbe837176	-0.256725
175	0x3eafe8d1	0.34357312
176	0x3d431788	0.047629863
177	0xbe69d380	-0.22834587
178	0xbec6d369	-0.38833168
179	0xbda9da12	-0.08293547
180	0x3e8a892f	0.27057788
181	0x3d77f719	0.060538385
182	0xbe1126c1	-0.1417494
183	0x3dfdd148	0.12393433
184	0x3da437ff	0.08018493
185	0xbea9cffc	-0.33166492
186	0x3e00ef52	0.12591293
187	0x3d0b15b9	0.033956263
188	0xbdffc6d3	-0.124890946
189	0xbd2bac3c	-0.041912302
190	0xbea850f5	-0.32874265
191	0xbe624767	-0.2209755
192	0x3d5ff340	0.05467534
193	0xbdbe523c	-0.09293029
194	0x3e377c2d	0.17918463
195	0x3e16c5ef	0.14723943
196	0x3d89a30b	0.06720551
197	0xbe3f1619	-0.18660773
198	0xbe851360	-0.25991344
199	0xbdeb0515	-0.11475579
200	0xbe863e86	-0.26219577
201	0xbeb57da1	-0.3544741
202	0x3e8fe5ad	0.28104916
203	0xbe5fbabe	-0.2184858
204	0xbea348c6	-0.3189146
205	0xbccd3aa2	-0.025052372
206	0xbe06e798	-0.13174284
207	0x3ebac3d9	0.36477545
208	0xbe843ef4	-0.2582928
209	0xbe27a5f8	-0.16371906
210	0x3dd4b7f5	0.103866495
211	0xbcaa4f26	-0.020789694
212	0x3e66eda4	0.2255159
213	0xbe56692b	-0.20938556
214	0x3eaa6f74	0.33288157
215	0xbd31f6ec	-0.043448374
216	0x3e05a392	0.13050678
217	0xbe6a97e5	-0.22909506
218	0x3e1f2a54	0.1554349
219	0xbc9d80d9	-0.019226478
220	0xbdd7d713	-0.10539069
221	0xbdfd64e4	-0.12372759
222	0xbda4f5a0	-0.08054662
223	0x3db740a9	0.0894788
224	0xbd040ae1	-0.032236937
225	0xbdf833d8	-0.121192634
226	0x3dd1cb46	0.102438495
227	0x3ecd1509	0.4005511
228	0x3cc701ad	0.024292791
229	0xbd783022	-0.060592778
230	0x3dc87b34	0.09789124
231	0xbe49f5a2	-0.19722608
232	0x3e5d990e	0.21640417
233	0x3d1116a3	0.03542198
234	0xbdd200ae	-0.10254036
235	0x3d50c8d3	0.05097277
236	0xbda2bc8e	-0.0794612
237	0x3e094f8b	0.1340925
238	0xbe6f4e9c	-0.23369831
239	0x3ca75138	0.02042447
240	0xbde7cc91	-0.11318315
241	0xbe240b3e	-0.16019914
242	0x3eb2edde	0.34947103
243	0xbe913814	-0.28363097
244	0xbdeb76ce	-0.114972696
245	0xbd895865	-0.06706313
246	0xbe267bf1	-0.16258217
247	0x3e1ff723	0.15621619
248	0xbdb4de9a	-0.088315204
249	0x3e20cf11	0.1570399
250	0x3e0d2f8d	0.1378767
251	0x3ede73bf	0.43447682
252	0x3de02472	0.109444514
253	0xbd77d968	-0.06051007
254	0xbdf4f7c2	-0.119613186
255	0x3e505f96	0.20348963

gru.weight_hh_l1 f4 [384, 128]
0	0x3dbc5d9b	0.09197541
1	0xbe291b6a	-0.16514364
2	0xbdd3416b	-0.10315212
3	0x3d9754ae	0.07389198
4	0x3e1fe463	0.15614466
5	0xbd276a91	-0.040873114
6	0xbe9b9c85	-0.30392852
7	0xbbeb121c	-0.0071737897
8	0xbdd4a4e9	-0.103830166
9	0x3d8fe839	0.07026715
10	0x3e219e9a	0.15783158
11	0x3e140848	0.14456284
12	0x3dce4395	0.10071484
13	0xbd7fc4f5	-0.062443692
14	0x3cbfa803	0.023395544
15	0xbe4a5a61	-0.1976104
16	0x3be69725	0.007037061
17	0x3dd6414d	0.10461674
18	0xbc34dfff	-0.011039733
19	0x3e8776a2	0.26457697
20	0xbe5a4770	-0.21316314
21	0x3c592e34	0.013255645
22	0x3df90cdd	0.121606566
23	0x3df595ba	0.11991449
24	0x3e02247c	0.1270923
25	0xbe5d818b	-0.21631448
26	0xbd4bc637	-0.04974958
27	0x3e9282ea	0.28615505
28	0x3e192ec4	0.14959246
29	0x3cd405a3	0.025881594
30	0xbd97dfee	-0.07415758
31	0xbe80a245	-0.25123802
32	0x3dcc9cf3	0.09990873
33	0xbe1d6952	-0.15372208
34	0xbd20ebdb	-0.03928743
35	0xbe1eade1	-0.15496017
36	0xbc01ae9e	-0.007915167
37	0x3e01afbe	0.12664697
38	0xbcdc804f	-0.026916651
39	0xbe8f0edf	-0.27941033
40	0x3dae8bb4	0.0852274
41	0x3d80f600	0.06296921
42	0x3e260e83	0.16216473
43	0x3e17b0c4	0.14813524
44	0x3e0e6667	0.13906251
45	0x3ee9c4b6	0.4565789
46	0xbaaaaf02	-0.0013022127
47	0x3d3b0e5f	0.045668002
48	0xbd7b847e	-0.06140565
49	0xbe092809	-0.13394178
50	0x3cd19bed	0.025587047
51	0xbe138c0a	-0.1440889
52	0x3d9b74a6	0.07590608
53	0x3dfe6653	0.124218605
54	0x3e300339	0.1718873
55	0xbe0bd0e4	-0.13653904
56	0x3da66ac2	0.08125831
57	0xbe7096ee	-0.23495075
58	0x3df6c129	0.12048561
59	0xbd9c0f39	-0.07620091
60	0xbe2c3885	-0.16818435
61	0x3d8ac885	0.06776527
62	0xbdb04391	-0.08606637
63	0x3e506b58	0.20353448
64	0xbde3a6eb	-0.111158215
65	0x3e20115d	0.15631624
66	0xbe4e72f0	-0.20161033
67	0x3e28d069	0.16485752
68	0x3e832b01	0.25618747
69	0xbd254163	-0.04034556
70	0xbe40eab2	-0.18839529
71	0x3def431f	0.11682724
72	0xbe58f3c4	-0.21186739
73	0x3e67574a	0.22591892
74	0x3e3b8ac4	0.18314654
75	0xbd4580b2	-0.048218437
76	0x3e465ad8	0.19370592
77	0x3e7cbc89	0.24681295
78	0x3d48f1e8	0.049058825
79	0x3e172e48	0.14763749
80	0x3e3e4ed1	0.18584754
81	0x3e11ef29	0.14251389
82	0xbe25eb9a	-0.16203156
83	0xbe9e9b54	-0.3097788
84	0xbd58e7c2	-0.052955396
85	0xbe95ddb7	-0.29270718
86	0x3dd4c249	0.103886195
87	0x3e6d0464	0.23146206
88	0x3e09e3af	0.1346576
89	0x3dde13b3	0.10843601
90	0x3b212829	0.0024590588
91	0xbe9fd36a	-0.31215984
92	0x3e1d4086	0.15356645
93	0x3ea83ba7	0.3285801
94	0xbd053fe8	-0.03253165
95	0x3d89c800	0.067276
96	0x3e0f4c2c	0.13993901
97	0x3e926c25	0.28598133
98	0xbea48f2d	-0.32140484
99	0x3ecbfa29	0.39839295
100	0xbe1ecfca	-0.15508953
101	0x3e237861	0.1596389
102	0xbecf8bee	-0.40536445
103	0xbda4f978	-0.08055395
104	0x3d20d26c	0.039263174
105	0xbe4a1ddd	-0.19737954
106	0xbcb476cc	-0.022029303
107	0xbe1f929f	-0.15583275
108	0x3e8140e6	0.25244826
109	0xbcd6d1e9	-0.02622314
110	0x3e1c0b81	0.15238763
111	0xbe03b2b0	-0.12861133
112	0xbe345225	-0.1760946
113	0x3d1c7768	0.038199812
114	0x3e41cee8	0.18926585
115	0xbdb8fce5	-0.09032611
116	0x3c811f3c	0.015761964
117	0xbda7f12b	-0.08200296
118	0x3e16eeab	0.14739482
119	0xbe121af0	-0.14268088
120	0xbe6ba167	-0.23010789
121	0x3e87a504	0.26493084
122	0x3d5aa8e8	0.053383738
123	0xbdabb131	-0.08383406
124	0xbe822b3d	-0.25423613
125	0x3d502abf	0.050822016
126	0xbd982bd3	-0.07430234
127	0x3e267047	0.16253768
128	0x3a96acda	0.0011495606
129	0xbed73e6f	-0.4203982
130	0xbe317213	-0.17328672
131	0xbe41dc7d	-0.18931766
132	0x3ebc94c3	0.36832246
133	0x3e147f03	0.14501576
134	0xbdd01b44	-0.101614505
135	0x3e08102b	0.13287418
136	0xbe089b7d	-0.13340564
137	0x3c4d8460	0.012543768
138	0xbafe0bde	-0.0019382199
139	0xbdf03bdc	-0.11730167
140	0xbd9bcdaf	-0.076075904
141	0x3dc1a249	0.094547816
142	0xbd435d25	-0.04769625
143	0x3edadffd	0.42749014
144	0x3e53559e	0.20638129
145	0x3e896acb	0.2683929
146	0xbcdf8e08	-0.027289405
147	0xbe0981a8	-0.13428366
148	0xbc4f7162	-0.01266131
149	0xbe1fec56	-0.15617499
150	0x3e0b80da	0.13623372
151	0x3e394319	0.18092002
152	0xbd86dc37	-0.065849714
153	0x3e26f84e	0.16305658
154	0x3e8b41f5	0.2719876
155	0x3e767071	0.2406633
156	0xbe19dc0d	-0.15025349
157	0xbe3f0ffa	-0.18658438
158	0xbe356ebf	-0.17718028
159	0x3e6b3d9e	0.22972724
160	0x3e1bd284	0.15217024
161	0x3d30ab69	0.04313222
162	0xbe3534e0	-0.17695951
163	0x3e9d5436	0.3072831
164	0x3e477706	0.19478998
165	0xbe655e08	-0.22399151
166	0xbd20d980	-0.039269924
167	0xbe6803a0	-0.22657633
168	0xbe8a3c6d	-0.26999226
169	0x3e97f0c4	0.29675877
170	0x3d1b970f	0.037985858
171	0xbe5ac727	-0.21365033
172	0x3d8a329f	0.067479365
173	0x3e5cde5e	0.21569201
174	0xbcb34a72	-0.021886084
175	0x3da46e96	0.08028905
176	0x3e320fb8	0.17388809
177	0xbe8f6c3d	-0.28012267
178	0x3dc0e0cf	0.09417879
179	0x3def31e4	0.11679438
180	0xbe97eacb	-0.2967132
181	0x3df0cbe0	0.11757636
182	0xbd5f34a1	-0.05449355
183	0xbe9f49e1	-0.31111053
184	0x3dc25939	0.09489674
185	0xbcca3450	-0.024683148
186	0xbcbdbed1	-0.023162277
187	0x3e23a53f	0.15981005
188	0x3e217ab6	0.15769467
189	0x3e135993	0.14389639
190	0xbc3df8a1	-0.011594922
191	0x3e2990c0	0.16559124
192	0xbce3415a	-0.027741123
193	0x3d077436	0.03306981
194	0xbd2e244b	-0.04251508
195	0x3eee6015	0.4655768
196	0x3e1709fe	0.14749905
197	0x3e2fdc56	0.17173895
198	0xbe10b19e	-0.14130256
199	0x3eabee9e	0.33580488
200	0x3c1c93ab	0.009556691
201	0x3e210acc	0.15726775
202	0xbc23891c	-0.00998142
203	0xbe0346ba	-0.12819949
204	0xbe1b5239	-0.15168084
205	0x3e3e8155	0.18604024
206	0xbeaefae2	-0.34175783
207	0xbdab1481	-0.0835352
208	0x3cd84e00	0.02640438
209	0x3de826a4	0.11335495
210	0x3d7cc748	0.061713487
211	0xbe646b5e	-0.22306582
212	0xbdcd1af1	-0.10014904
213	0xbe2629ed	-0.16226931
214	0x3c1293ed	0.008946401
215	0x3ebf907e	0.37414926
216	0x3e1db086	0.1539937
217	0xbca2b068	-0.019859508
218	0x3d98c67f	0.07459735
219	0x3d35e281	0.044405464
220	0xbd931838	-0.07182354
221	0xbdcaa4d5	-0.098947205
222	0x3e8436bd	0.25823012
223	0xbc570980	-0.013124824
224	0x3e61b69c	0.22042316
225	0xbd807a13	-0.06273284
226	0xbe137bbe	-0.14402673
227	0xbe0e5741	-0.13900472
228	0x3e18c34e	0.14918253
229	0xbc20ad34	-0.00980692
230	0x3e1816ce	0.1485245
231	0x3db4b758	0.088240325
232	0x3ce1688f	0.027515678
233	0x3d371121	0.04469407
234	0x3e0edb10	0.13950753
235	0x3d1da5a7	0.038488057
236	0x3daa8ad6	0.08327262
237	0x3e31a287	0.17347156
238	0xbe7ed456	-0.24885687
239	0xbd8a778b	-0.06761082
240	0x3db8abc4	0.09017137
241	0x3e36c2b0	0.17847705
242	0x3db8c5fb	0.09022137
243	0x3ebe530a	0.3717273
244	0xbcdac520	-0.026705325
245	0x3e2866eb	0.1644551
246	0xbdbb8dbe	-0.091578946
247	0xbeaee1fb	-0.34156784
248	0x3e3da479	0.18519773
249	0x3ec1183c	0.37713802
250	0xbc254b18	-0.0100887045
251	0x3dc6d825	0.09709195
252	0x3e873ac0	0.2641201
253	0x3ea21834	0.3165909
254	0x3d9bc10b	0.076051794
255	0x3cddbd10	0.027067691
