nets/Pretrained Models/SentimentAnalysis.pth (torch, 811615 bytes, 11 tensors)

embedding.weight f4 [30, 128]
0.5642439 -0.9548071 -0.027448256 0.71431565 -0.48037803 -0.6370279 1.0175493 -1.600318
-0.5055356 0.7623677 -0.0009557076 -0.4967557 -0.38545883 -0.57148284 0.3058485 -0.047733787
-0.73932266 -0.19737297 1.3294462 -0.38602778 0.3636889 -0.0077342223 -0.14894733 0.039352994
-1.0445461 0.18406941 0.27877647 0.9099298 -0.7514411 0.39737388 -0.09809123 -0.6846335
1.1928955 -0.8612402 -0.8545725 0.7588717 0.86431193 -0.55746555 0.5396979 -0.7313297
-0.8663759 0.3869715 1.117898 -0.49777886 0.08858129 -0.003361162 -0.32983753 0.03883641
-1.4296689 0.07238341 0.09547559 1.7644774 0.17723377 1.0432742 1.0336306 1.7443918
-1.2749768 -0.27885565 -0.8038043 -0.026244959 1.9765949 0.6372507 -0.59690046 -0.38756764
-0.46278518 0.15817413 0.2283976 0.9585764 -0.40734926 0.99285316 0.748126 -0.47503328
1.6429679 -0.4586075 0.021317579 -0.021987593 0.2226512 0.10195068 0.34981218 -0.18960406
-0.80084974 -1.0343765 2.3109581 0.88527966 0.42100886 -0.8621772 0.7957667 1.7326933
-0.20191905 -0.839825 -1.3799815 -1.063459 -0.4691618 -0.34301752 -0.009466007 0.51788807
0.06104993 0.29939035 0.10400095 0.36427766 0.7392099 0.63465035 -0.82001394 1.1744248
0.44818366 -0.06107166 -0.57946575 0.14604242 -0.009062907 -0.16412747 -0.33615837 0.9364823
0.23588775 0.8134058 0.32546327 -1.2976325 -1.032597 0.46784866 -0.32731414 -0.55689335
1.9515371 -0.047576565 0.69914037 0.8452582 0.27566078 0.6417172 -0.39864197 -1.0745869
-1.0590085 -1.8477446 0.36997718 0.024029681 0.665827 -1.09179 -0.09149538 0.4075472
-0.75726885 0.43023047 -0.258187 1.3691373 0.7870927 0.96467733 -0.46549538 -0.04375498
1.2402705 0.04526248 -1.6961396 0.10341596 0.3721902 0.09636425 0.16470309 -0.4554061
1.4861443 0.60736555 -0.20519415 1.07311 0.74016863 1.1211555 -1.1527246 -0.053392813
-1.3617257 -0.78383666 -0.107272804 -0.20669931 -1.9482906 1.1015675 -0.72739124 0.360391
-0.46727878 0.29495656 0.07368791 0.40074223 0.10841977 2.0766215 0.74523485 1.2703035
-1.3724566 0.009044546 0.90607107 0.650315 1.230685 -0.09920221 0.9006352 -0.20953172
1.6667575 1.5100553 -1.1245028 -0.8057119 1.2554985 2.746158 -1.0876105 -0.50076115
1.3894548 0.91633284 0.8473475 1.7625269 -1.0186776 0.094041646 -1.3167616 -0.15558231
0.38891184 -0.09926968 -0.41866717 -0.3066078 -0.07559576 0.5319298 -0.5346153 -0.3603433
1.2144039 0.0065507055 0.19936602 -0.53679115 1.174565 -0.21090947 -0.3841232 -0.15054819
-0.17886569 0.2772882 -0.2951489 1.1693805 -1.3367468 1.2865624 0.30313694 -0.9882086
-0.3252259 0.18592481 -1.8609598 -1.1593235 -0.055508733 -0.58382285 0.55174905 0.32565826
0.66811836 1.5992705 -0.54282355 -0.57908636 0.42019203 -1.7228627 -0.42485318 -2.618652
0.99682266 -0.28034315 1.0880578 0.026862022 0.034117606 0.24765134 -0.0056233224 -0.26563117
-1.3796244 -0.05511822 0.18063408 0.7088218 -0.82202405 -1.5187526 -1.6653109 -1.0454198
00000000: 4a72 103f 3d6e 74bf 2adb e0bc 64dd 363f
00000010: 1cf4 f5be 4314 23bf 0e3f 823f 38d7 ccbf
00000020: c86a 01bf 882a 433f 7488 7aba c356 febe
00000030: dc5a c5be b34c 12bf 2d98 9c3e 8184 43bd
00000040: 4044 3dbf 241c 4abe 4b2b aa3f 6fa5 c5be
00000050: 6e35 ba3e 5c6f fdbb a685 18be 9b30 213d
00000060: b0b3 85bf b17c 3c3e cabb 8e3e 29f1 683f
00000070: 725e 40bf 9774 cb3e 0ee4 c8bd 2444 2fbf
00000080: cdb0 983f 3d7a 5cbf 43c5 5abf 6a45 423f
00000090: 8c43 5d3f 10b6 0ebf a429 0a3f 6c38 3bbf
000000a0: d0ca 5dbf 2121 c63e 4817 8f3f dfdc febe
000000b0: 1b6a b53d f146 5cbb 77e0 a8be ed12 1f3d
000000c0: 64ff b6bf c13d 943d b588 c33d 65da e13f
000000d0: c57c 353e 028a 853f 024e 843f 3b48 df3f
000000e0: 7132 a3bf 2bc6 8ebe 1ec6 4dbf abff d6bc
000000f0: 1001 fd3f dd22 233f 78ce 18bf 446f c6be
00000100: 2ef2 ecbe 66f8 213e 0fe1 693e 4365 753f
00000110: 1590 d0be a02b 7e3f 2f85 3f3f 9037 f3be
00000120: c64c d23f 9ace eabe 34a2 ae3c 531f b4bc
00000130: adfe 633e 85cb d03d 951a b33e 9127 42be
00000140: 7d04 4dbf 7366 84bf bde6 1340 b0a1 623f
00000150: 798e d73e a5b7 5cbf 5eb7 4b3f e5c8 dd3f
00000160: dec3 4ebe c5fe 56bf 3ca3 b0bf 6d1f 88bf
00000170: fa35 f0be fe9f afbe 5017 1bbc 5094 043f
00000180: 7e0f 7a3d b149 993e 73fe d43d 9a82 ba3e
00000190: dc3c 3d3f 7278 223f 6fec 51bf 8d53 963f
000001a0: 5478 e53e 4726 7abd de57 14bf 258c 153e
000001b0: 967c 14bc 0811 28be f31c acbe 4ebd 6f3f
000001c0: 8f8c 713e 5d3b 503f 1fa3 a63e d218 a6bf
000001d0: 232c 84bf dc89 ef3e b895 a7be 9090 0ebf
000001e0: f8cb f93f a5df 42bd ddfa 323f d762 583f
000001f0: 6923 8d3e 9447 243f cd1a ccbe 108c 89bf
00000200: 978d 87bf e582 ecbf a66d bd3e e5d9 c43c
00000210: a373 2a3f c6bf 8bbf ee61 bbbd 07aa d03e
00000220: 5fdc 41bf 2b47 dc3e 1631 84be e43f af3f
00000230: e87e 493f 18f5 763f 6955 eebe 6c38 33bd
00000240: 2fc1 9e3f 2665 393d 1a1b d9bf bfcb d33d
00000250: b78f be3e 9f5a c53d eda7 283e fd2a e9be
00000260: fa39 be3f 4f7c 1b3f 6a1e 52be ab5b 893f
00000270: b17b 3d3f 0682 8f3f 7b8c 93bf 6cb2 5abd
00000280: 074d aebf 85a9 48bf d8b1 dbbd fca8 53be
00000290: 9661 f9bf 2a00 8d3f 5036 3abf 2b85 b83e
000002a0: 2a3f efbe 8c04 973e b0e9 963d 162e cd3e
000002b0: 2f0b de3d 5ee7 0440 b6c7 3e3f 4e99 a23f
000002c0: a8ac afbf 932f 143c 46f4 673f 0b7b 263f
000002d0: 1687 9d3f 872a cbbd 0790 663f 7c8f 56be
000002e0: 4f58 d53f 7e49 c13f b5ef 8fbf 2343 4ebf
000002f0: 2db4 a03f 0dc1 2f40 d236 8bbf e231 00bf
00000300: a8d9 b13f ca94 6a3f c4eb 583f 7b9a e13f
00000310: 0764 82bf e898 c03d a58b a8bf f850 1fbe
00000320: 741f c73e e74d cbbd 8b5b d6be b3fb 9cbe
00000330: f3d1 9abd 8d2c 083f 8cdc 08bf eb7e b8be
00000340: 9671 9b3f 4da7 d63b 9b26 4c3e 256b 09bf
00000350: 2558 963f a7f8 57be ccab c4be 4e29 1abe
00000360: 9128 37be b8f8 8d3e c21d 97be 43ae 953f
00000370: 851a abbf 14ae a43f c434 9b3e 3dfb 7cbf
00000380: 0284 a6be 1363 3e3e ee33 eebf b664 94bf
00000390: 205d 63bd 6a75 15bf 6d3f 0d3f aebc a63e
000003a0: ce09 2b3f e5b4 cc3f 7cf6 0abf 013f 14bf
000003b0: 6923 d73e c486 dcbf 5b86 d9be ff97 27c0
000003c0: c52f 7f3f 2389 8fbe 7a45 8b3f be0d dc3c
000003d0: e7be 0b3d 5098 7d3e d943 b8bb cf00 88be
000003e0: 8897 b0bf a5c3 61bd 24f8 383e 5875 353f
000003f0: 2b70 52bf 7c66 c2bf e828 d5bf 51d0 85bf

gru.weight_ih_l0 f4 [384, 128]
-0.022339344 0.124485046 -0.049265336 -0.040719204 0.023225889 0.022769012 0.07411083 0.06485756
0.006013889 0.024256 -0.01336261 -0.039883427 0.06150481 -0.14696729 -0.020632703 -0.011136992
0.092686065 -0.030656612 0.009166522 0.049340103 0.16010149 -0.18307005 -0.031788062 -0.061695628
0.113355964 -0.048433956 -0.16898626 0.026510855 0.18457502 0.12064073 -0.16317724 0.1735689
-0.15176536 -0.14959095 0.043594986 -0.076681904 -0.08475016 0.03155098 -0.108233504 -0.009915972
-0.042592067 0.008825226 -0.037336342 0.07080436 0.01338048 0.15507428 0.033917148 -0.21187724
0.18216646 -0.053977147 0.10909359 -0.081054546 0.15301733 -0.09198144 -0.074487634 -0.20838545
0.06263958 0.08470891 0.0036610214 -0.33946225 0.14997177 0.07173839 0.036581755 0.039051633
-0.05012136 -0.035927758 0.049114596 -0.10225531 0.10205235 0.06695547 0.026026905 0.04151565
-0.08665694 -0.0035603158 -0.0027454235 -0.06711312 0.018828422 -0.21384503 0.15671016 -0.09991443
0.023131516 0.05637864 -0.08216704 -0.1044846 0.12232911 0.072351836 0.22958179 -0.09918101
-0.08244925 0.15495215 -0.095464505 -0.010345685 -0.03500851 0.15876089 -0.009023433 0.11505213
0.109192036 -0.11244209 -0.056116655 -0.012595616 0.065625936 -0.08056778 -0.07832829 -0.08145473
-0.025809873 -0.04570056 0.044874925 -0.11432597 -0.075814635 0.16542879 0.067642815 -0.014334354
-0.17987263 -0.028397383 0.18293315 -0.07072111 0.063212134 -0.086287804 0.08439801 0.11857869
-0.008963303 -0.043039244 0.027933998 -0.08647868 0.026286965 0.10085935 -0.1046752 0.0062005334
0.15459624 0.17351826 -0.06780779 0.16006546 0.0074564638 -0.08346532 -0.16551308 -0.2102133
0.19562931 -0.2174128 0.25299993 0.116207674 0.10413139 0.009903803 -0.16279256 0.08995575
0.11758945 -0.087618046 -0.15133815 -0.03661199 0.16159807 0.020130346 0.019241655 -0.12206982
0.0056518163 -0.24712816 -0.0729905 0.14123969 0.0431166 -0.029572684 0.042936545 0.16410121
-0.05810808 -0.079230614 -0.04135841 -0.062057257 -0.08942163 0.026595993 -0.16229498 0.103341915
0.25713998 0.1764149 0.037052706 -0.02078699 -0.052750222 0.31401473 0.1678066 0.11949112
0.04308077 -0.0032447914 0.22719255 -0.1305254 0.36023358 -0.046102747 0.083426565 -0.2958586
0.037840575 0.17472476 0.10108039 -0.3326797 -0.051376157 0.046115898 -0.22022171 0.22457437
0.21502838 -0.092838876 0.10713143 0.016527 -0.07380311 0.09106656 0.14340368 -0.1408419
0.0017235917 0.08153671 -0.05559366 0.10469937 -0.11798073 -0.042697504 0.11030125 0.1443898
0.23687443 0.05192652 0.21145768 0.042465776 -0.07891854 0.16048963 -0.14225434 -0.12236447
-0.08046274 -0.19157977 0.1000728 0.002758269 -0.094083 -0.12955701 -0.047018144 0.039824057
-0.12746018 -0.031025052 -0.07531685 0.046986617 0.08404043 -0.120121084 -0.20729718 0.052817956
0.10388463 0.16340093 0.14855099 -0.033988148 0.0365413 0.2548609 0.11088068 -0.12220177
-0.0069001946 -0.04989346 -0.059279516 -0.12891084 -0.061679527 0.1479083 -0.107716195 0.0719716
-0.11874521 -0.021761779 0.04986933 -0.047520075 -0.026269972 0.18822218 -0.005484521 -0.008842376
00000000: 0001 b7bc 04f2 fe3d 73ca 49bd 2ec9 26bd
00000010: 3844 be3c 1486 ba3c 6bc7 973d 0ad4 843d
00000020: 2810 c53b 85b4 c63c d9ee 5abc ce5c 23bd
00000030: 78ec 7b3d 987e 16be ea05 a9bc ee77 36bc
00000040: 31d2 bd3d 9323 fbbc 2e2f 163c d918 4a3d
00000050: a5f1 233e b776 3bbe 3334 02bd 8eb4 7cbd
00000060: 2c27 e83d af62 46bd bc0a 2dbe 4b2d d93c
00000070: 3c01 3d3e 7d12 f73d ef17 27be 0cbc 313e
00000080: 6168 1bbe 5f2e 19be a890 323d 670b 9dbd
00000090: 7e91 adbd 9a3b 013d 87a9 ddbd 9a76 22bc
000000a0: 0575 2ebd ae97 103c feed 18bd e001 913d
000000b0: cd39 5b3c cbcb 1e3e b5ec 0a3d 59f6 58be
000000c0: d889 3a3e 2417 5dbd 766c df3d edff a5bd
000000d0: 93b0 1c3e c460 bcbd f98c 98bd ff62 55be
000000e0: 2e49 803d dd7b ad3d bfed 6f3b ffcd adbe
000000f0: 3392 193e 94eb 923d c0d6 153d 9bf4 1f3d
00000100: 0e4c 4dbd fc28 13bd 632c 493d 3b6b d1bd
00000110: d300 d13d f31f 893d 6036 d53c 500c 2a3d
00000120: 3279 b1bd 3054 69bb 90ec 33bb 9a72 89bd
00000130: 103e 9a3c 31fa 5abe a178 203e f09f ccbd
00000140: 4e7e bd3c 4aed 663d 3147 a8bd 06fc d5bd
00000150: af87 fa3d 332d 943d 7d17 6b3e 6a1f cbbd
00000160: 27db a8bd c7ab 1e3e e582 c3bd f380 29bc
00000170: 1565 0fbd 3792 223e 05d7 13bc 73a0 eb3d
00000180: 13a0 df3d 0a48 e6bd 94da 65bd d85d 4ebc
00000190: e466 863d b800 a5bd 956a a0bd bdd1 a6bd
000001a0: 3a6f d3bc 8330 3bbd c5ce 373d bc23 eabd
000001b0: b444 9bbd 2a66 293e 5188 8a3d a3da 6abc
000001c0: 8830 38be a1a1 e8bc d452 3b3e 3bd6 90bd
000001d0: 5d75 813d a9b7 b0bd ddd8 ac3d 62d9 f23d
000001e0: d1da 12bc eb49 30bd d7d5 e43c bc1b b1bd
000001f0: c357 d73c 598f ce3d f45f d6bd d82d cb3b
00000200: 7a4e 1e3e c5ae 313e d0de 8abd 33e8 233e
00000210: 5a55 f43b deef aabd 437c 29be 2842 57be
00000220: 0d53 483e 76a1 5ebe 3589 813e 4afe ed3d
00000230: d742 d53d 8f43 223c 18b3 26be b83a b83d
00000240: bdd2 f03d 1771 b3bd 63f8 1abe 74f6 15bd
00000250: f779 253e 65e8 a43c ada0 9d3c beff f9bd
00000260: df32 b93b 2a0f 7dbe 0b7c 95bd 23a1 103e
00000270: 089b 303d 6a42 f2bc 3bde 2f3d 260a 283e
00000280: bd02 6ebd a943 a2bd 7067 29bd c02f 7ebd
00000290: b022 b7bd d7df d93c a830 26be eda4 d33d
000002a0: daa7 833e 1ca6 343e 94c4 173d 7a49 aabc
000002b0: 9e10 58bd 8ac6 a03e 7ed5 2b3e c3b7 f43d
000002c0: 7675 303d 91a6 54bb 2aa5 683e 73a8 05be
000002d0: 8970 b83e 3cd6 3cbd 8cdb aa3d c77a 97be
000002e0: b8fe 1a3d 0ceb 323e 3c03 cf3d fe54 aabe
000002f0: ce6f 52bd 06e4 3c3d cd81 61be d3f6 653e
00000300: 6630 5c3e 4f22 bebd b967 db3d a263 873c
00000310: 1626 97bd 1b81 ba3d 6ad8 123e dc38 10be
00000320: 24ea e13a b8fc a63d 2db6 63bd a06c d63d
00000330: e29f f1bd 94e3 2ebd 9fe5 e13d ebda 133e
00000340: 368f 723e e7b0 543d 5d88 583e 98f0 2d3d
00000350: 0ba0 a1bd 6557 243e 1fab 11be 399a fabd
00000360: a6c9 a4bd 7d2d 44be f8f2 cc3d 13c4 343b
00000370: 97ae c0bd 98aa 04be 1996 40bd 8d1e 233d
00000380: ec84 02be 4028 febc b83f 9abd 0a75 403d
00000390: 641d ac3d 0b02 f6bd b645 54be a457 583d
000003a0: 77c1 d43d 9352 273e c01d 183e 2837 0bbd
000003b0: 55ac 153d 217d 823e 6915 e33d ec44 fabd
000003c0: 071b e2bb 165d 4cbd 14cf 72bd 3401 04be
000003d0: aca3 7cbd 4675 173e 4f9a dcbd d965 933d
000003e0: b030 f3bd c245 b2bc c843 4c3d 69a4 42bd
000003f0: 2034 d7bc 51bd 403e 7fb7 b3bb 9ddf 10bc

gru.weight_hh_l0 f4 [384, 128]
0.21964355 -0.055888943 0.055614505 -0.026914088 -0.07840376 0.059763398 0.10451822 0.14242472
0.039636735 -0.17817569 -0.109859504 0.22641473 0.0017072115 0.3784449 0.10725188 -0.24302624
0.055433758 -0.014692921 -0.07299349 0.046749964 0.013862392 -0.21972512 0.15759125 0.0065384544
-0.0004369888 0.2263048 -0.14444374 0.2813776 0.11785161 0.111376174 -0.08664718 0.06645629
0.039553896 -0.18882005 -0.1484116 0.039498672 0.029005887 -0.06636934 0.028856039 0.04617706
0.2744278 -0.1579198 -0.06701344 0.07656451 0.0062737074 0.11985255 -0.10940019 -0.08965906
0.11741701 -0.06872938 -0.1286928 0.061909407 0.13397773 -0.0823408 0.015577609 0.13045773
0.04341805 -0.07149897 0.25130704 -0.20275614 0.015113815 0.044627156 -0.26962307 -0.07086921
0.18668664 -0.019651162 0.23213331 -0.036989484 0.30913678 0.17469954 -0.1667783 -0.11581707
0.21646748 -0.004076869 0.28509322 0.11723142 -0.1833394 -0.06063953 0.01520872 0.023571758
-0.0020708158 0.051847 -0.11960171 -0.21382995 0.11496272 -0.25646156 0.11800656 0.12653424
-0.31535104 -0.03501693 0.10002225 0.16375424 -0.0527771 0.16687764 0.04871425 0.11169195
-0.11786835 -0.029324396 0.0038208363 0.21376722 -0.3870949 0.008444777 -0.0393578 -0.02322295
-0.15243092 0.0059846053 0.08144753 0.102140166 0.030626139 0.19184498 -0.18948753 -0.013680929
-0.0957653 0.16167387 0.1180933 0.16595751 0.1460643 0.08856839 0.032550987 0.12413959
-0.07068238 -0.15451433 -0.12848584 0.062415432 0.1133693 0.09659999 0.09336772 0.007869497
-0.10123189 0.18112291 -0.10542534 -0.19058663 -0.056337565 -0.12122601 -0.2361581 -0.08600387
-0.030531961 0.10931464 -0.035790462 0.08404931 -0.055622656 -0.11545294 0.055599626 -0.2839409
-0.26850656 0.20871808 0.044208914 -0.29642406 -0.123841085 -0.14167343 -0.23213845 0.041761365
0.0745947 0.0015457968 -0.08868039 0.1435542 0.09309527 0.29331043 0.1322973 -0.0027453601
-0.07928143 0.017244237 0.08734624 0.17649093 0.114883274 0.020551292 0.09490268 0.024288923
0.32484564 -0.0997982 -0.06300606 0.1710891 -0.10996579 -0.0439596 -0.14098078 -0.17557701
-0.11347256 0.1264805 -0.03205026 0.012365644 0.06590971 0.03165228 0.012331613 -0.18921754
0.12975591 0.06587293 0.016837627 0.07874702 0.09484147 0.20901313 -0.11996027 -0.08557665
-0.22086567 -0.19152932 0.05280708 0.0797365 0.16510154 -0.16790232 0.1522376 -0.023150822
-0.3284359 0.13187313 0.05525527 0.017064335 -0.028197376 0.049010295 -0.012167902 -0.0968601
-0.046646953 0.0045545455 -0.03737284 0.0026960946 -0.00791623 -0.09940991 -0.13539925 0.017267302
0.1257621 0.12690885 -0.122672945 0.12830186 0.0347292 -0.08509598 0.07629497 0.07180666
0.12743454 0.011793536 0.010441271 -0.07761721 -0.35002723 0.0029069036 0.17065883 0.07557495
0.033302374 -0.17768092 -0.0070217093 -0.024726188 -0.07228779 0.053950347 -0.11474681 0.07834871
-0.0877908 -0.06036071 -0.072269015 -0.031745747 -0.0749766 -0.033719447 0.049058285 0.058001544
-0.12347366 0.20059678 0.15022549 0.018867217 -0.05536121 0.018161185 0.0359623 -0.111815855
00000000: 3dea 603e ceeb 64bd 09cc 633d ef7a dcbc
00000010: 2792 a0bd 77ca 743d a60d d63d c9d7 113e
00000020: 215a 223d b073 36be 05fe e0bd 43d9 673e
00000030: 83c4 df3a 88c3 c13e e0a6 db3d dfdb 78be
00000040: 820e 633d 94ba 70bc 9c7d 95bd e47c 3f3d
00000050: 161f 633c 9fff 60be 9a5f 213e 8840 d63b
00000060: a51b e5b9 72bc 673e 0fe9 13be ba10 903e
00000070: 2f5c f13d 3119 e43d 1474 b1bd 3c1a 883d
00000080: 4403 223d 0b5a 41be 36f9 17be 5cc9 213d
00000090: c19d ed3c a6ec 87bd 8063 ec3c 2824 3d3d
000000a0: cd81 8c3e bab5 21be 583e 89bd dbcd 9c3d
000000b0: ac93 cd3b 4175 f53d 350d e0bd 2b9f b7bd
000000c0: 5478 f03d fdc1 8cbd 0cc8 03be b894 7d3d
000000d0: 7531 093e 4ba2 a8bd 3a39 7f3c b696 053e
000000e0: 20d7 313d 0d6e 92bd 51ab 803e 4e9f 4fbe
000000f0: ef9f 773c f7ca 363d 090c 8abe e023 91bd
00000100: c82a 3f3e 79fb a0bc 5bb4 6d3e 4982 17bd
00000110: 2d47 9e3e 70e4 323e eec7 2abe 8031 edbd
00000120: a7a9 5d3e 4297 85bb bdf7 913e 0717 f03d
00000130: 53bd 3bbe 2861 78bd ff2d 793c 8f19 c13c
00000140: 86b6 07bb 855d 543d bef1 f4bd 3df6 5abe
00000150: 9371 eb3d ee4e 83be 6cad f13d 3192 013e
00000160: b175 a1be ea6d 0fbd 77d8 cc3d 31af 273e
00000170: cd2c 58bd f9e1 2a3e 9888 473d c0be e43d
00000180: f664 f1bd b739 f0bc ff66 7a3b cbe5 5a3e
00000190: 4d31 c6be f65b 0a3c a535 21bd 0e3e bebc
000001a0: da16 1cbe 821a c43b f6cd a63d dd2e d13d
000001b0: abe3 fa3c 0373 443e 0509 42be fa25 60bc
000001c0: 9920 c4bd d68d 253e e6da f13d c4f0 293e
000001d0: e191 153e 5863 b53d 2f54 053d e63c fe3d
000001e0: ecc1 90bd 0139 1ebe cb91 03be 53a7 7f3d
000001f0: 2a2e e83d 37d6 c53d 9337 bf3d 10ef 003c
00000200: aa52 cfbd 4978 393e 3ee9 d7bd 2429 43be
00000210: 38c2 66bd 5845 f8bd 6ed3 71be cc22 b0bd
00000220: 2a1e fabc 5be0 df3d 0599 12bd 0b22 ac3d
00000230: 95d4 63bd 9772 ecbd 6fbc 633d b460 91be
00000240: b179 89be 31ba 553e 6814 353d e5c4 97be
00000250: 65a0 fdbd d712 11be b4b5 6dbe f70d 2b3d
00000260: 1bc5 983d 559c ca3a 109e b5bd dfff 123e
00000270: bca8 be3d c92c 963e f278 073e 80eb 33bb
00000280: 4d5e a2bd c943 8d3c 96e2 b23d 0aba 343e
00000290: ec47 eb3d 2f5b a83c 565c c23d 90f9 c63c
000002a0: 2b52 a63e 0063 ccbd 5209 81bd fb31 2f3e
000002b0: be35 e1bd fb0e 34bd 445d 10be 76ca 33be
000002c0: 4d64 e8bd 1b84 013e 2247 03bd 4599 4a3c
000002d0: acfb 863d d2a5 013d 890a 4a3c 3ec2 41be
000002e0: bcde 043e 63e8 863d 10ef 893c 1e46 a13d
000002f0: 3f3c c23d 8a07 563e bbad f5bd d042 afbd
00000300: 9c2a 62be 4320 44be 3d4c 583d e44c a33d
00000310: 6110 293e 96ee 2bbe 2ce4 1b3e cba6 bdbc
00000320: c028 a8be c009 073e 5a53 623d 81ca 8b3c
00000330: 2ffe e6bc 05bf 483d e15b 47bc 975e c6bd
00000340: e010 3fbd 4c3e 953b 4314 19bd f6b0 303b
00000350: 13b3 01bc 6c97 cbbd 1aa6 0abe 2874 8d3c
00000360: c8c7 003e 65f4 013e f43b fbbd 9061 033e
00000370: 3540 0e3d cd46 aebd 8a40 9c3d 5f0f 933d
00000380: 337e 023e ad39 413c dd11 2b3c c6f5 9ebd
00000390: c536 b3be c081 3e3b 30c1 2e3e 0ac7 9a3d
000003a0: 1268 083d fdf1 35be 5e16 e6bb 938e cabc
000003b0: 9f0b 94bd 0afb 5c3d 6000 ebbd 4a75 a03d
000003c0: aacb b3bd cb3c 77bd c701 94bd d407 02bd
000003d0: 558d 99bd 671d 0abd 57f1 483d 0793 6d3d
000003e0: c2df fcbd 3e69 4d3e b6d4 193e 6c8f 9a3c
000003f0: 70c2 62bd c4c6 943c 344d 133d b6ff e4bd

gru.bias_ih_l0 f4 [384]
0.019508619 0.0499446 0.09127317 0.07987878 0.04739785 0.09134399 0.08489939 0.14654578
0.07046358 -0.014950692 0.14662436 0.17309491 -0.0029769982 0.011496159 0.070376396 -0.03425312
0.16494676 0.02946439 -0.080398954 0.19345832 0.1607053 0.085787416 -0.039759368 -0.016607502
0.05635404 0.0015745554 -0.049529724 0.05823173 0.10937222 -0.06033436 0.06877421 -0.06686061
0.14314815 -0.08734226 -0.00565589 -0.020315027 -0.05426861 -0.0064391512 0.029780839 0.08087998
0.03980022 0.072865516 0.1129081 0.0986609 -0.020718139 0.11428653 0.025830213 0.022637902
0.052473247 -0.039391693 0.039954662 0.054714184 0.06021671 0.01579708 0.022727367 0.03324774
-0.008511029 0.09278941 0.08143707 -0.124189205 0.008437918 -0.029220996 0.034617215 -0.06770605
0.10494097 0.04570075 -0.05136539 0.060271446 0.04111556 0.004266232 -0.069478974 0.057416238
0.09384377 0.09818617 0.09537054 -0.07223177 0.030466488 -0.04946472 0.011771285 -0.022680769
0.04289587 0.030739158 0.023880407 0.015215746 0.045750245 0.013007408 -0.03152599 0.086701065
0.047556046 0.13979855 0.016052486 -0.029970782 -0.060288753 -0.0009908364 0.076625384 -0.0107215
0.06431807 0.0864744 -0.024685252 -0.056192145 0.061843168 -0.08504662 -0.042814817 0.0091117695
0.111284144 -0.053290185 -0.013106015 -0.01925373 -0.027812613 -0.026920352 -0.004733004 -0.07311142
-0.072510324 -0.02042589 0.12027138 0.016659826 0.0017536065 0.054370977 -0.00085525017 0.038215525
-0.028930116 0.07711324 -0.04999662 0.1773439 0.089432925 0.08328867 -0.009633055 0.08844332
0.09886458 -0.05646833 0.0068168035 0.18612616 -0.08034331 0.02744404 -0.15575992 0.030179113
-0.0725469 0.043378074 0.28757536 0.26609594 -0.020904632 -0.21685663 -0.010282086 0.06137764
0.15648106 -0.008136393 0.068771616 -0.009913652 0.06311804 0.08565982 0.02143424 -0.011267516
-0.0127465585 0.14643668 -0.14537564 -0.04386246 0.38179532 -0.10560219 0.06934796 0.051950958
0.13494575 -0.087151006 -0.14525197 0.10167369 -0.002515832 -0.04084952 0.01301091 0.04873388
0.13850379 0.018365305 -0.1326853 0.03261275 0.0523581 0.36684972 -0.18142506 0.12454155
-0.068708815 0.06802652 -0.29812598 -0.039600883 -0.06365762 0.09111982 -0.20082965 -0.025659915
0.11011283 -0.09374856 0.062241312 -0.0792193 -0.033990763 0.22661428 -0.050062746 -0.06555261
0.16243564 0.12687883 0.014749624 0.0047303773 0.3123375 0.028209055 -0.06726129 0.15529735
0.14379402 0.17695913 0.1049424 -0.045686968 0.017627291 0.07549416 0.04086658 0.09388535
-0.053719476 0.037366264 -0.07327061 -0.007950849 0.15594423 -0.07574329 -0.07019922 -0.015828714
-0.07077401 -0.09919575 0.14576268 -0.049203187 -0.04017855 -0.19649638 -0.26363012 0.08193944
0.09316273 0.24301332 0.01172336 0.13475242 0.00021188396 0.01980808 0.08246227 -0.05673979
-0.07937273 0.12538074 0.0037683877 0.006628859 -0.08146287 0.10456309 0.033691395 -0.09545008
-0.1195688 0.050495777 0.043484785 0.1673448 -0.15736035 0.08318966 0.15544997 0.11119077
0.15613057 -0.090409845 -0.022311056 0.29505154 0.3689515 0.25875902 -0.02868934 0.084094726
00000000: 8ad0 9f3c b592 4c3d 6eed ba3d 7c97 a33d
00000010: 3f24 423d 8f12 bb3d bbdf ad3d 1910 163e
00000020: 364f 903d bff3 74bc b224 163e cb3f 313e
00000030: be19 43bb 635a 3c3c 8021 903d 004d 0cbd
00000040: cee7 283e 4e5f f13c 35a8 a4bd f019 463e
00000050: ee8f 243e 50b1 af3d b8da 22bd 750c 88bc
00000060: 7ed3 663d 5061 ce3a aedf 4abd 6584 6e3d
00000070: 8bfe df3d 2921 77bd 7ed9 8c3d 37ee 88bd
00000080: 6e95 123e 80e0 b2bd 0b55 b9bb b36b a6bc
00000090: c348 5ebd 84ff d2bb f2f6 f33c 67a4 a53d
000000a0: 8e05 233d 843a 953d 5d3c e73d ba0e ca3d
000000b0: 16b9 a9bc 0e0f ea3d e299 d33c 1f73 b93c
000000c0: 30ee 563d 2f59 21bd 80a7 233d fb1b 603d
000000d0: cca5 763d e168 813c be2e ba3c c82e 083d
000000e0: d871 0bbc 6008 be3d 7bc8 a63d e956 febd
000000f0: 313f 0a3c df60 efbc c8ca 0d3d 78a9 8abd
00000100: 4beb d63d b630 3b3d 8464 52bd 31df 763d
00000110: ca68 283d bfcb 8b3b fe4a 8ebd 4a2d 6b3d
00000120: 2a31 c03d d515 c93d a151 c33d 40ee 93bd
00000130: db94 f93c 859b 4abd 59dc 403c 05cd b9bc
00000140: 94b3 2f3d b0d0 fb3c d8a0 c33c 774b 793c
00000150: 9c64 3b3d 061d 553c 6621 01bd 5490 b13d
00000160: 21ca 423d 5a27 0f3e 8180 833c 4985 f5bc
00000170: 57f1 76bd f4de 81ba c5ed 9c3d 3ba9 2fbc
00000180: 31b9 833d 7d19 b13d ba38 cabc bc29 66bd
00000190: 434f 7d3d ec2c aebd 975e 2fbd 8849 153c
000001a0: f1e8 e33d cf46 5abd 9cba 56bc 00ba 9dbc
000001b0: 47d7 e3bc 1288 dcbc 5117 9bbb 71bb 95bd
000001c0: 4b80 94bd 3254 a7bc d750 f63d 307a 883c
000001d0: 45d9 e53a 1ab4 5e3d de32 60ba e287 1c3d
000001e0: dafe ecbc 8ced 9d3d 41c9 4cbd a499 353e
000001f0: 9c28 b73d 4093 aa3d f6d3 1dbc c521 b53d
00000200: 8379 ca3d 564b 67bd 7e5f df3b db97 3e3e
00000210: 098b a4bd 53d2 e03c 877f 1fbe 303a f73c
00000220: 7893 94bd 35ad 313d 143d 933e ba3d 883e
00000230: 3140 abbc aa0f 5ebe 3276 28bc 1f67 7b3d
00000240: 923c 203e 814e 05bc 22d8 8c3d df6c 22bc
00000250: 0844 813d 6a6e af3d dc96 af3c 639b 38bc
00000260: f1d6 50bc 7ff3 153e 5add 14be 1fa9 33bd
00000270: ad7a c33e f645 d8bd 4e06 8e3d 87ca 543d
00000280: 382f 0a3e 3a7c b2bd efbc 14be 4c3a d03d
00000290: a8e0 24bb d451 27bd b62b 553c 2d9d 473d
000002a0: f0d3 0d3e d672 963c a8de 07be f294 053d
000002b0: 7275 563d bad3 bb3e 7ec7 39be a40f ff3d
000002c0: 35b7 8cbd 7d51 8b3d f8a3 98be 8934 22bd
000002d0: ed5e 82bd 079d ba3d 4aa6 4dbe be34 d2bc
000002e0: d682 e13d 3fff bfbd bff0 7e3d ba3d a2bd
000002f0: e639 0bbd 930d 683e 980e 4dbd 7240 86bd
00000300: 8755 263e 86ec 013e 68a8 713c 4801 9b3b
00000310: b3ea 9f3e ad16 e73c 4ac0 89bd 4506 1f3e
00000320: bd3e 133e c634 353e 0aec d63d 4222 3bbd
00000330: 1c67 903c af9c 9a3d b763 273d f646 c03d
00000340: f408 5cbd 5e0d 193d e70e 96bd 4744 02bc
00000350: d8af 1f3e 4c1f 9bbd 9cc4 8fbd 38ab 81bc
00000360: f7f1 90bd 2427 cbbd d042 153e 4889 49bd
00000370: 4392 24bd 5936 49be 87fa 86be ddcf a73d
00000380: 1acc be3d 7cd8 783e 5613 403c 8afc 093e
00000390: 2b2d 5e39 8e44 a23c fbe1 a83d fb67 68bd
000003a0: 2b8e a2bd cf63 003e 0ef7 763b e636 d93b
000003b0: 01d6 a6bd 2c25 d63d fdff 093d 557b c3bd
000003c0: 7de0 f4bd a9d4 4e3d 1a1d 323d 6f5c 2b3e
000003d0: 1223 21be 575f aa3d 472e 1f3e fdb7 e33d
000003e0: b1e0 1f3e cc28 b9bd adc5 b6bc ff10 973e
000003f0: 36e7 bc3e 107c 843e e805 ebbc db39 ac3d

gru.bias_hh_l0 f4 [384]
0.015620522 0.040148217 -0.04359661 0.11881487 0.073344134 0.16045214 0.02317718 0.14896242
0.0009767227 0.039296396 0.06603746 0.022656718 0.024838142 0.13334943 0.12189453 0.059956618
0.0726768 -0.06325164 -0.007823847 0.10910888 0.11654011 0.16782033 -0.031604584 -0.084812835
0.071157366 0.08567487 -0.045584965 0.08049896 0.20487714 0.0879239 0.096597545 0.103025556
0.12603553 0.019415492 0.12694517 0.09600481 0.10676305 -0.052197535 0.11903919 -0.017772619
0.0032568783 0.16767049 0.0021789358 0.08440232 0.010726429 0.03087088 0.063430585 0.08247878
-0.046991043 0.029138187 0.10608341 -0.07041431 0.052531194 0.084234945 0.0669502 -0.059598144
-0.023464838 0.08933077 0.081562676 -0.13446425 -3.7864982e-05 0.030508539 0.12829909 0.030988956
0.002436131 0.022305077 -0.04253668 -0.09441561 0.14322 0.00940948 -0.02863077 0.05665391
-0.022188257 0.0645284 0.07788098 -0.02825278 0.09605565 -0.039543703 0.078261115 0.09115871
0.09722009 0.09022515 0.0654861 0.030636482 0.046040025 -0.12881078 -0.020334115 0.05100876
-0.00033513329 0.14127867 -0.034735177 -0.017540922 0.008050342 0.007882072 0.11703207 0.036762003
0.030059025 0.12613082 0.08285894 0.08625482 0.071100004 -0.030139111 -0.06252954 0.045235332
0.0060552806 -0.016183205 -0.064173594 -0.064078145 0.013958701 0.032267854 -0.060319345 -0.09342904
0.04677671 -0.117873006 0.12802729 0.1548039 0.025586953 0.045636352 -0.02056628 0.022257503
0.052907728 0.1081832 -0.14744048 0.08213659 0.050188042 -0.03871012 -0.029688247 -0.00808533
0.03749676 -0.03246344 -0.033328786 0.21495618 0.016021824 0.15213479 -0.1936385 0.06158107
-0.042871732 0.09008103 0.30627993 0.25696364 -0.09990994 -0.18903227 0.0058895843 0.15989196
0.19126768 -0.059861142 -0.02018431 -0.15087454 0.06496662 0.10178278 0.022660922 0.05916092
-0.08704718 0.18018205 -0.13132784 -0.018255757 0.30775228 -0.1293515 0.033371124 -0.00012001841
0.20889369 0.046824057 -0.02724548 0.026391529 -0.08326825 -0.050033797 0.15416202 0.1253577
0.1500881 -0.041065466 -0.1293418 -0.0039866692 0.042393275 0.4406398 -0.08733644 0.11650514
-0.016634246 -0.07243819 -0.17277929 -0.10119474 -0.038824383 0.015872547 -0.102637306 -0.04594825
0.13540319 -0.08951209 0.06421842 -0.051070347 -0.0555193 0.1333974 0.0016469366 -0.06314182
0.15147012 0.051310178 -0.015892873 0.004590383 0.25368655 -0.0021881491 -0.031712633 0.030332146
0.023725653 0.19966146 0.18461077 0.019883724 -0.049076904 0.1488696 0.039465126 0.1129633
-0.02377084 -0.053835955 0.04579272 0.044526342 0.2066158 -0.06667013 -0.11200507 0.0016657375
-0.0762732 -0.09276488 0.059240054 -0.030991701 -0.054483924 -0.07249049 -0.33985174 0.09494194
0.055206154 0.22927843 0.09114168 0.13589424 0.03145686 0.020125372 0.09362797 -0.017528394
-0.20412083 0.15597999 -0.048457436 0.015589384 -0.080863975 0.14581287 0.0431415 -0.0052582864
-0.061452188 -0.015917623 0.059417423 0.28707573 -0.12494873 0.007944841 0.13929921 -0.04071606
0.12984465 -0.08173243 0.019670535 0.40500748 0.3007699 0.18882069 -0.002757787 0.1016416
00000000: 38ed 7f3c 7572 243d 5c92 32bd 3655 f33d
00000010: 7335 963d 914d 243e 12de bd3c 9b89 183e
00000020: 6005 803a 42f5 203d a63e 873d 959a b93c
00000030: 5c79 cb3c c18c 083e d7a3 f93d 1295 753d
00000040: 93d7 943d 138a 81bd 982f 00bc 7a74 df3d
00000050: 95ac ee3d 18d9 2b3e cf73 01bd 5ab2 adbd
00000060: f4ba 913d 4e76 af3d 4db7 3abd a4dc a43d
00000070: 50cb 513e 7211 b43d efd4 c53d 10ff d23d
00000080: 750f 013e 3d0d 9f3c eafd 013e 2b9e c43d
00000090: 96a6 da3d 15cd 55bd d2ca f33d e297 91bc
000000a0: 5a71 553b d0b1 2b3e 7acc 0e3b 20db ac3d
000000b0: e7bd 2f3c ede4 fc3c e5e7 813d a2ea a83d
000000c0: ae79 40bd 35b3 ee3c 4242 d93d 6135 90bd
000000d0: f32a 573d 5f83 ac3d 301d 893d 2f1d 74bd
000000e0: 5539 c0bc 0df3 b63d 550a a73d ffb0 09be
000000f0: 37d1 1eb8 0bed f93c d660 033e 8ddc fd3c
00000100: 7fa7 1f3b 23b9 b63c f13a 2ebd f95c c1bd
00000110: 44a8 123e 382a 1a3c 148b eabc ee0d 683d
00000120: 26c4 b5bc 7727 843d 1080 9f3d 6072 e7bc
00000130: d3b8 c43d 94f8 21bd 5d47 a03d 6bb1 ba3d
00000140: 541b c73d f7c7 b83d 941d 863d 5cf9 fa3c
00000150: 7794 3c3d f9e6 03be bb93 a6bc 90ee 503d
00000160: d4b4 afb9 5bab 103e 7946 0ebd fbb1 8fbc
00000170: 95e5 033c ce23 013c 83ae ef3d c193 163d
00000180: 583e f63c 7028 013e f3b1 a93d 5ea6 b03d
00000190: e19c 913d 4ce6 f6bc 7d0f 80bd af48 393d
000001a0: 606b c63b a492 84bc 726d 83bd 673b 83bd
000001b0: 09b3 643c 4c2b 043d 6b11 77bd b957 bfbd
000001c0: ef98 3f3d 6767 f1bd 9619 033e ea84 1e3e
000001d0: bb9b d13c 2fed 3a3d 9e7a a8bc 5e55 b63c
000001e0: c6b5 583d 278f dd3d a3fa 16be 3a37 a83d
000001f0: fa91 4d3d 818e 1ebd c434 f3bc 5578 04bc
00000200: 3496 193d 62f8 04bd c483 08bd 791d 5c3e
00000210: 3340 833c 39c9 1b3e 2c49 46be 6f3c 7c3d
00000220: 459a 2fbd 677c b83d b9d0 9c3e bd90 833e
00000230: 959d ccbd ad91 41be 6afd c03b b8ba 233e
00000240: addb 433e f530 75bd 9159 a5bc db7e 1abe
00000250: 380d 853d 7d73 d03d 66a3 b93c b952 723d
00000260: cb45 b2bd a581 383e ce7a 06be 198d 95bc
00000270: b591 9d3e b874 04be 29b0 083d 65b2 fbb8
00000280: 3ae8 553e 95ca 3f3d ea31 dfbc 0c33 d83c
00000290: 8b88 aabd 3df0 4cbd a6dc 1d3e c55d 003e
000002a0: b2b0 193e 4334 28bd 2d72 04be 9ba2 82bb
000002b0: 92a4 2d3d 8a9b e13e 73dd b2bd 3f9a ee3d
000002c0: 8b44 88bc 795a 94bd 0eed 30be 303f cfbd
000002d0: 5106 1fbd 2507 823c 8233 d2bd 3b34 3cbd
000002e0: 22a7 0a3e 1d52 b7bd f284 833d 242f 51bd
000002f0: 3568 63bd 5499 083e 06de d73a 8050 81bd
00000300: fc1a 1b3e 9f2a 523d c531 82bc ec6a 963b
00000310: 34e3 813e 0d67 0fbb 1be5 01bd 1f7b f83c
00000320: 4d5c c23c 0e74 4c3e 9b0a 3d3e 31e3 a23c
00000330: dd04 49bd 4671 183e 2fa6 213d 4d59 e73d
00000340: 11bb c2bc 1783 5cbd 2691 3b3d 4161 363d
00000350: 1893 533e 598a 88bd ea62 e5bd e054 da3a
00000360: 2035 9cbd 83fb bdbd b3a5 723d 4fe2 fdbc
00000370: 892a 5fbd e575 94bd 0c01 aebe eb70 c23d
00000380: d91f 623d f7c7 6a3e 7da8 ba3d dc27 0b3e
00000390: e9d8 003d f7dd a43c 05c0 bf3d b597 8fbc
000003a0: 0d05 51be 38b9 1f3e 4e7b 46bd 9e6a 7f3c
000003b0: 039c a5bd f84f 153e 24b5 303d b44d acbb
000003c0: 4ab5 7bbd ad65 82bc af5f 733d 97fb 923e
000003d0: 1fe5 ffbd 142b 023c 74a4 0e3e e2c5 26bd
000003e0: fff5 043e 5563 a7bd 1a24 a13c 245d cf3e
000003f0: 83fe 993e 365a 413e fdbb 34bb 7929 d03d

gru.weight_ih_l1 f4 [384, 128]
-0.035548728 0.077360414 -0.02460911 0.14598906 0.030235246 -0.08123501 -0.115848504 -0.0015236738
0.064655304 -0.083469436 -0.007432143 0.13535301 0.0737609 -0.17883518 -0.026574047 -0.06142044
0.007143139 0.16420828 0.082945116 -0.15394065 0.042973906 -0.015135459 0.29568142 -0.12059234
0.056414682 -0.20700286 -0.0030818884 -0.1805067 0.012892085 0.13042437 -0.09872993 -0.13601555
-0.026565984 0.052266814 0.21615586 0.11767488 0.21692485 -0.072865985 0.09633755 0.026449554
-0.11006129 -0.14378355 -0.22033362 0.15203634 -0.049107466 -0.08628743 0.05723567 0.17104296
0.008796195 0.032936826 -0.27753168 0.022981793 -0.097259276 -0.09668074 -0.21174891 0.020359416
-0.04112531 -0.07757287 7.607589e-05 -0.033675633 0.004696895 -0.046880953 0.034723815 0.1827168
-0.054837182 -0.0869103 -0.16995083 0.013503847 0.018069226 -0.078664556 0.14526427 0.038874783
0.13444845 0.054183375 -0.070490465 0.019439295 -0.16254902 0.0844987 0.02683996 -0.032052144
0.0728045 0.02048586 0.109793745 0.030413078 -0.17321254 -0.04255709 -0.046867087 0.24885145
0.061116178 0.2481982 -0.010641947 0.023750974 -0.13737825 -0.04675047 0.21409154 -0.03009833
0.094629265 0.17248408 0.18367396 -0.042738583 -0.058506675 0.062667154 -0.07406335 -0.005850753
-0.027431604 -0.009154719 0.022736017 -0.20322946 -0.42820972 -0.07104009 0.0058008223 -0.18881416
0.3230653 -0.09280072 0.0077389022 0.013612066 -0.037823837 -0.019019982 0.09848397 -0.0030144537
-0.03031597 0.03821087 0.15293159 -0.12603308 0.09555884 -0.12433952 0.08525038 0.021549892
0.045906954 -0.053477347 -0.005372006 -0.10465712 -0.009477188 0.17361338 -0.13523741 0.0149111645
0.030728335 0.03423435 0.041509315 -0.06911635 -0.0027481127 -0.099566266 0.013992983 -0.0035851207
0.17270723 0.0070510437 0.0014985884 0.101168804 0.011623216 0.08904113 0.016201345 0.071166635
-0.011456862 0.12604061 0.056510843 -0.101020984 -0.011108347 -0.024907118 0.1903124 0.07920889
-0.11177215 -0.011385249 -0.07041844 -0.084892355 -0.0079488335 0.012817227 0.1692923 -0.035882883
-0.016919715 0.030421933 -0.29499048 0.04848761 0.04702191 -0.09644502 -0.06617363 -0.05195858
0.013137106 -0.032798573 0.04716422 0.14899717 0.0652267 0.07955161 -0.04506529 0.02447918
-0.04371611 -0.0621631 0.058904946 0.04041177 -0.09926063 0.020291694 0.008650339 0.004669725
-0.20184578 0.011077182 -0.0362052 0.044753157 -0.1663754 0.017252056 0.057193786 0.03590134
0.1870706 0.024064805 0.14202677 -0.08451085 -0.010885492 -0.20439416 -0.088025585 0.044695213
0.024705369 -0.073252626 0.071143754 0.047641933 -0.061823864 0.014987933 0.0753387 -0.05912207
-0.1573995 0.011971208 0.09834432 0.054324266 -0.048586678 0.050450746 0.058392875 0.07507813
0.10582252 0.18376614 -0.056085892 0.16988207 -0.054677773 -0.17387024 0.008269304 -0.16053648
0.06293082 -0.037874956 0.044707425 0.030836824 0.05137876 -0.031503372 0.035289783 0.080061376
0.012038483 -0.024132434 -0.06351476 0.06864534 0.08071658 0.09777091 -0.045488436 -0.09784592
0.008091535 -0.046670813 0.07039878 -0.026523314 0.036664557 0.1195907 0.02302043 -0.048362564
00000000: 8b9b 11bd 236f 9e3d 0b99 c9bc 287e 153e
00000010: e8af f73c 8a5e a6bd fb41 edbd 02b6 c7ba
00000020: 006a 843d 06f2 aabd 5689 f3bb fb99 0a3e
00000030: f40f 973d 9220 37be d1b1 d9bc 0094 7bbd
00000040: fe10 ea3b 3726 283e 21df a93d 9ea2 1dbe
00000050: 6805 303d b7fa 77bc 8e63 973e 1ef9 f6bd
00000060: 1513 673d 8ff8 53be 82f9 49bb c0d6 38be
00000070: 5339 533c f78d 053e eb32 cabd a947 0bbe
00000080: e8a0 d9bc ba15 563d f657 5d3e 87ff f03d
00000090: 8c21 5e3e c33a 95bd 9f4c c53d bcac d83c
000000a0: d067 e1bd ff3b 13be 239f 61be 6aaf 1b3e
000000b0: e924 49bd 77b7 b0bd f36f 6a3d e325 2f3e
000000c0: ea1d 103c c4e8 063d a218 8ebe 5044 bc3c
000000d0: df2f c7bd 8d00 c6bd b5d4 58be cac8 a63c
000000e0: 0373 28bd 86de 9ebd ef8a 9f38 76ef 09bd
000000f0: 69e8 993b 3e06 40bd 8f3a 0e3d 1d1a 3b3e
00000100: f49c 60bd 07fe b1bd 9707 2ebe 3d3f 5d3c
00000110: ea05 943c e21a a1bd 28c0 143e 2a3b 1f3d
00000120: dbac 093e 63ef 5d3d 4e5d 90bd 283f 9f3c
00000130: 4073 26be a80d ad3d 7adf db3c 1c49 03bd
00000140: 871a 953d f6d1 a73c 8bdb e03d d924 f93c
00000150: a15e 31be 5850 2ebd b4f7 3fbd ead2 7e3e
00000160: f554 7a3d ab27 7e3e 905b 2ebc 6791 c23c
00000170: e2ac 0cbe 6c7d 3fbd d03a 5b3e c690 f6bc
00000180: fdcc c13d ab9f 303e 0715 3c3e a70e 2fbd
00000190: b2a4 6fbd a357 803d 87ae 97bd acb7 bfbb
000001a0: 3eb8 e0bc adfd 15bc e240 ba3c 621b 50be
000001b0: 4e3e dbbe 777d 91bd d314 be3b 8058 41be
000001c0: d168 a53e 4e0e bebd 9e96 fd3b 2505 5f3c
000001d0: 2bed 1abd cbcf 9bbc f7b1 c93d 248e 45bb
000001e0: 3259 f8bc 0083 1c3d 199a 1c3e d10e 01be
000001f0: 5ab4 c33d b8a5 febd c097 ae3d 6689 b03c
00000200: ee08 3c3d 100b 5bbd a707 b0bb 7956 d6bd
00000210: 3546 1bbc b5c7 313e ad7b 0abe f54d 743c
00000220: fdb9 fb3c 5139 0c3d ac05 2a3d df8c 8dbd
00000230: ae19 34bb 66e9 cbbd d342 653c 58f4 6abb
00000240: 2ada 303e 710c e73b 486c c43a 9731 cf3d
00000250: 4d6f 3e3c 325b b63d afb8 843c d0bf 913d
00000260: 90b5 3bbc ca10 013e ea77 673d 17e4 cebd
00000270: c9ff 35bc 030a ccbc 41e1 423e 4538 a23d
00000280: cce8 e4bd 3289 3abc 8b37 90bd 0bdc adbd
00000290: d33b 02bc 59ff 513c f65a 2d3e eef9 12bd
000002a0: 379b 8abc 6b37 f93c fe08 97be f29a 463d
000002b0: 0c9a 403d f784 c5bd 0a86 87bd 85d2 54bd
000002c0: 043d 573c cc57 06bd 452f 413d b792 183e
000002d0: 9395 853d f4eb a23d 6296 38bd 9088 c83c
000002e0: aa0f 33bd bc9e 7ebd 5046 713d d086 253d
000002f0: 2849 cbbd c43a a63c 27ba 0d3c 7e04 993b
00000300: a9b0 4ebe 127d 353c e74b 14bd 164f 373d
00000310: 505e 2abe 2f54 8d3c 0844 6a3d 490d 133d
00000320: 6f8f 3f3e 8e23 c53c 776f 113e 0614 adbd
00000330: 1059 32bc b44c 51be c246 b4bd 5412 373d
00000340: ea62 ca3c 7905 96bd d1b3 913d 3024 433d
00000350: 053b 7dbd f38f 753c 2d4b 9a3d fc29 72bd
00000360: 562d 21be e322 443c bf68 c93d 1f83 5e3d
00000370: d302 47bd 71a5 4e3d 5e2d 6f3d 90c2 993d
00000380: 7ab9 d83d 312d 3c3e 52ba 65bd 91f5 2d3e
00000390: cdf5 5fbd 0a0b 32be fa7b 073c ad63 24be
000003a0: e0e1 803d c522 1bbd 221f 373d 829d fc3c
000003b0: 8972 523d ae09 01bd 058c 103d 38f7 a33d
000003c0: 0f3d 453c 62b1 c5bc 0714 82bd ee95 8c3d
000003d0: bc4e a53d 1d3c c83d 1552 3abd 7163 c8bd
000003e0: 5c92 043c e529 3fbd 3c2d 903d 6c47 d9bc
000003f0: 932d 163d f8eb f43d 5795 bc3c d317 46bd

gru.weight_hh_l1 f4 [384, 128]
0.101257935 0.1419786 -0.0013269196 0.0723401 0.24199155 0.0125843985 -0.1930155 -0.10280617
0.018557152 0.11268946 -0.012909426 0.038969535 -0.06498928 0.07993169 0.20887615 0.03213416
-0.1255117 0.07410102 0.02551405 0.025737856 -0.01764423 0.19471364 0.108682685 0.19373927
-0.025724253 0.08430773 0.047047578 -0.07452624 -0.16487211 -0.0055049025 0.07825577 -0.08168759
-0.01249542 -0.055243574 0.0946651 0.055926222 -0.048256237 0.012585501 0.070447296 0.12677303
-0.012917536 0.01145965 0.06291068 -0.07976528 -0.023104986 0.12689348 0.14223732 -0.083906665
0.08903305 -0.03550197 -0.092873156 -0.015468285 0.17464592 0.11986235 -0.05144481 0.08919616
0.03647008 -0.029244583 -0.027539296 0.12231796 0.0241733 -0.008173213 0.0639036 -0.035874046
-0.0528337 -0.163383 -0.008601814 0.024355633 -0.061249215 -0.099428624 0.1062648 0.12869503
-0.12009709 -0.1471822 0.061876126 0.073005214 0.02055223 -0.19301367 0.07367835 -0.017487876
-0.049863216 -0.06545068 -0.051108792 0.012909587 -0.049594417 -0.009206051 0.0351993 0.097003475
0.026757168 0.05066377 0.004612577 -0.14229275 0.11313039 0.049372703 -0.089133255 0.028132148
-0.0682152 0.07542399 -0.14186019 -0.07491934 -0.10045817 -0.05571651 0.002078719 -0.0065207775
0.06549401 -0.085803 -0.04422361 -0.080196165 -0.11112912 -0.016606174 -0.027210891 0.0149278855
-0.013342368 0.009021846 0.1169863 -0.010443697 -0.10009659 -0.1398201 -0.041508563 0.0661794
-0.0350659 0.08739326 0.1059781 0.010221544 0.18395396 -0.0907849 -0.07800893 0.026784658
-0.17074524 0.02629259 -0.104460984 0.18415739 0.07547024 0.060700905 -0.011740304 -0.041323803
-0.12858433 -0.031086806 0.015154046 -0.11081918 -0.0861468 -0.046615113 0.059714995 -0.21772303
0.17684157 0.026470054 -0.29330313 -0.06261891 -0.11451248 -0.12435512 -0.07214328 0.120485656
-0.08930224 0.092722416 -0.11600316 -0.06642422 0.17526114 -0.011734472 -0.01492001 0.13182402
0.01904479 0.0466807 0.08173409 0.058838993 -0.08517885 -0.089397915 0.062391847 -0.016510256
-0.07166242 -0.19472222 0.10189733 0.040940054 -0.034998767 0.18333648 0.14275032 0.10646897
0.05505841 -0.17968608 0.07938999 0.089137405 0.113125294 0.09196945 0.06259761 0.07681881
-0.019656496 0.12843333 -0.07118749 0.017009784 0.06878314 -0.07657639 -0.004414355 0.050868444
-0.04533128 0.091868475 0.037847064 0.17345072 0.010192142 0.19245502 -0.13608433 0.04585345
0.027644409 0.0513796 -0.029429615 0.0983596 -0.07632004 0.14377156 -0.085893266 -0.04952676
0.030659335 -0.12897894 -0.036057904 0.07170545 -0.043252118 0.020219602 -0.05466986 -0.026389211
-0.07450416 -0.00036961824 0.09935547 -0.017355897 0.08132537 -0.030780496 -0.111595124 -0.20088935
-0.13075702 0.008137332 0.4275831 0.071248814 0.016963411 0.09797534 -0.055085078 0.060773265
-0.08984197 0.0116931405 -0.03956451 -0.13299298 -0.045459684 -0.095111735 -0.07506412 0.0076319976
0.22567894 -0.021383869 0.052911658 0.08149045 0.049784984 0.087195285 0.042704698 -0.0065940428
0.06254272 0.009966829 0.032250512 -0.1413768 0.096737444 -0.07755056 -0.075767204 -0.07388984
00000000: 5260 cf3d d762 113e 09ec adba 0c27 943d
00000010: a2cc 773e cb2e 4e3c dba5 45be 0b8c d2bd
00000020: 2b05 983c bbc9 e63d 0f82 53bc 859e 1f3d
00000030: 1a19 85bd 3ab3 a33d a1e3 553e 1c9f 033d
00000040: 2486 00be 47c2 973d d702 d13c 32d8 d23c
00000050: a28a 90bc 0363 473e 0795 de3d 9663 463e
00000060: abbb d2bc 88a9 ac3d f6b4 403d 37a1 98bd
00000070: 3cd4 28be 7862 b4bb 9044 a03d d34b a7bd
00000080: 97b9 4cbc 1647 62bd c7df c13d e512 653d
00000090: 55a8 45bd 6b33 4e3c ac46 903d cad0 013e
000000a0: 13a4 53bc 41c1 3b3c 51d7 803d fb5b a3bd
000000b0: ab46 bdbc 5df0 013e a9a6 113e 42d7 abbd
000000c0: f656 b63d 846a 11bd 4834 bebd b16e 7dbc
000000d0: 61d6 323e 647a f53d cbb7 52bd 7aac b63d
000000e0: a761 153d 5692 efbc 179a e1bc d781 fa3d
000000f0: 1607 c63c f1e8 05bc e4df 823d aaf0 12bd
00000100: 2668 58bd e04d 27be 9fee 0cbc 7785 c73c
00000110: 75e0 7abd 3ca1 cbbd 5ca1 d93d a1c8 033e
00000120: 77f5 f5bd eeb6 16be d271 7d3d c283 953d
00000130: 265d a83c 60a5 45be ade4 963d bc42 8fbc
00000140: 5f3d 4cbd 020b 86bd 7457 51bd bb82 533c
00000150: 8423 4bbd fad4 16bc 242d 103d c2a9 c63d
00000160: d931 db3c d084 4f3d 1a25 973b 31b5 11be
00000170: e8b0 e73d 083b 4a3d 7f8b b6bd 6475 e63c
00000180: 69b4 8bbd e577 9a3d cc43 11be 506f 99bd
00000190: 03bd cdbd ff36 64bd 1e3b 083b 3fac d5bb
000001a0: b921 863d 7cb9 afbd d123 35bd e33d a4bd
000001b0: aa97 e3bd ac09 88bc 60e9 debc 1794 743c
000001c0: f399 5abc 5dd0 133c 8396 ef3d 0a1c 2bbc
000001d0: 71ff ccbd 002d 0fbe e204 2abd 1189 873d
000001e0: 43a1 0fbd 3dfb b23d 0c0b d93d 4378 273c
000001f0: 6d5e 3c3e 6fed b9bd 25c3 9fbd 806b db3c
00000200: d7d7 2ebe 8f63 d73c a4ef d5bd c193 3c3e
00000210: 2490 9a3d 83a1 783d 675a 40bc 2643 29bd
00000220: 9cab 03be c2a9 febc ad48 783c 2bf5 e2bd
00000230: bc6d b0bd 7def 3ebd b697 743d c9f2 5ebe
00000240: f515 353e bad7 d83c d42b 96be 583e 80bd
00000250: 8585 eabd e6ad febd dbbf 93bd 2fc1 f63d
00000260: 18e4 b6bd 40e5 bd3d 1193 edbd 6c09 88bd
00000270: a877 333e f141 40bc 0f73 74bc e0fc 063e
00000280: d203 9c3c 4334 3f3d 3464 a73d 2801 713d
00000290: 4072 aebd 4116 b7bd 988e 7f3d 8440 87bc
000002a0: bfc3 92bd 4365 47be 8caf d03d c2b0 273d
000002b0: de5a 0fbd 8fbc 3b3e 242d 123e 670c da3d
000002c0: ed84 613d a1ff 37be 3897 a23d ac8d b63d
000002d0: 3cae e73d 7b5a bc3d 2d33 803d 2e53 9d3d
000002e0: a906 a1bc 0784 033e bfca 91bd 1a58 8b3c
000002f0: 2dde 8c3d 15d4 9cbd 4ba6 90bb 6e5b 503d
00000300: 4bad 39bd 8a25 bc3d 8605 1b3d 119d 313e
00000310: f1fc 263c ee12 453e b159 0bbe d4d0 3b3d
00000320: 8776 e23c 6a73 523d 6016 f1bc c270 c93d
00000330: ae4d 9cbd da38 133e cfe8 afbd 92dc 4abd
00000340: 4929 fb3c 0e13 04be 74b1 13bd 4fda 923d
00000350: 2229 31bd 94a3 a53c 81ed 5fbd 302e d8bc
00000360: a395 98bd 52c9 c1b9 e17a cb3d f42d 8ebc
00000370: ea8d a63d 6127 fcbc fc8b e4bd f0b5 4dbe
00000380: 2be5 05be 7252 053c 2cec da3e e6ea 913d
00000390: daf6 8a3c 4ca7 c83d e4a0 61bd 63ed 783d
000003a0: 11ff b7bd 9694 3f3c 650e 22bd 502f 08be
000003b0: ef33 3abd f1c9 c2bd 38bb 99bd d615 fa3b
000003c0: 6118 673e 392d afbc e5b9 583d 77e4 a63d
000003d0: 57eb 4b3d 7193 b23d 1feb 2e3d d712 d8bb
000003e0: 6616 803d e94b 233c 1d19 043d 14c5 10be
000003f0: 481e c63d d4d2 9ebd d62b 9bbd 8e53 97bd

gru.bias_ih_l1 f4 [384]
-0.12368927 0.008095316 0.0021316987 -0.03380693 -0.17056383 0.025439158 -0.12775317 -0.049955856
0.052113313 -0.0047720424 -0.054879814 0.05343639 0.03926963 -0.096468054 -0.09202771 -0.20446254
0.12374312 -0.020665288 0.063781805 -0.12506483 0.09877332 0.08259674 -0.016041912 0.04785208
0.041189887 0.04493145 0.0029858756 0.028313337 0.08493408 -0.064294346 -0.029053854 0.12155831
0.12665327 0.061997447 0.07440314 0.012077191 -0.00682485 0.13384561 0.009882875 -0.09899978
0.09521855 0.14360036 0.041234028 0.016105162 -0.01850612 0.08585331 -0.054866184 -0.015200681
0.023460574 -0.058666535 0.06961379 -0.042793915 -0.11136513 -0.088754065 -0.0116318045 -0.0070806346
-0.06042097 -0.08106316 0.0037880568 0.010522446 -0.0527733 0.089078896 -0.1068178 0.02301972
-0.06792655 -0.06628195 0.039860684 -0.058286805 -0.1097954 -0.0053701266 0.06271099 -0.106349185
-0.016213926 0.06366529 0.17619689 0.0074363463 -0.07690632 0.09933235 -0.02931052 0.12439434
-0.076722324 0.07713414 -0.026176037 -0.005660548 -0.0012756056 0.1357833 0.12093204 -0.059289064
0.108667515 0.009980068 0.05796376 -0.014794373 -0.030139238 -0.08648064 0.038001098 -0.007904717
-0.02394297 0.03941204 0.22804055 0.07788246 -0.10221361 0.07453436 0.040914964 -0.061392654
-0.03771472 0.06725325 -0.08848734 0.03752697 0.04916753 -0.05972234 -0.063504644 0.02113363
-0.054814126 -0.112122424 -0.03243589 0.023302414 0.06565334 0.10911926 -0.027944999 -0.019021684
-0.021424476 0.06735921 0.052705135 0.08401724 0.07115306 -0.008019337 -0.044121746 0.025139512
-0.12836455 0.058707133 0.15787967 0.10038068 -0.1380025 0.088716604 -0.06997487 -0.0399823
0.16914488 0.027528528 0.14274962 0.36271316 0.05422404 -0.00081641285 0.13971123 -0.0021160638
0.11342066 0.12878777 0.17673188 0.023933697 -0.022348696 0.16767828 0.102901146 0.1139309
-0.10760026 -0.09282668 0.08158468 -0.11290202 0.022877371 0.22822239 0.2019412 0.17965108
0.08604889 0.018327044 0.05923049 0.09586728 0.19374962 0.3613851 0.18870404 0.17926976
0.20749523 0.08333917 0.10026352 0.039079558 0.13000762 0.23568909 0.07771264 0.056145042
0.14558841 0.07192055 0.36333838 0.06246284 0.06750346 0.026885921 0.11491471 -0.05844255
0.18224151 0.31638524 0.06774337 0.022855954 -0.013778309 0.42222318 0.09686509 0.050697528
0.45628557 0.12799607 0.29350486 -0.020978833 0.09223611 0.17361553 -0.009757207 0.10528092
-0.025626821 0.12587 0.06252021 0.011168907 0.08142525 -0.16682628 0.18780883 0.1751898
0.017423088 0.15936774 0.37181827 0.018827913 -0.0044952333 0.07220258 0.29893425 0.16604987
-0.11194103 0.06879837 -0.01672411 0.0344516 -0.02954785 0.051558893 0.035272785 0.23216045
0.07187564 -0.007246471 0.20733328 0.04197808 0.09460062 0.012822742 0.14317805 0.31196672
-0.007984325 0.1354222 -0.089096725 0.091324866 0.110837765 -0.0021567352 0.25745964 0.07059372
0.04023096 0.06961311 0.05865272 0.21898115 0.31970075 0.0005094743 0.16417395 0.43052202
0.053177644 -0.06163771 0.40856233 0.055452436 0.001286604 0.12831825 0.025189359 0.11199201
00000000: cd50 fdbd 37a2 043c f8b3 0b3b 2379 0abd
00000010: 49a8 2ebe c865 d03c bad1 02be 839e 4cbd
00000020: c574 553d cb5e 9cbb a8c9 60bd 1ee0 5a3d
00000030: 31d9 203d 0b91 c5bd 0679 bcbd a15e 51be
00000040: 086d fd3d 404a a9bc 09a0 823d ff10 00be
00000050: ab49 ca3d 7b28 a93d 546a 83bc 8b00 443d
00000060: bab6 283d 0a0a 383d aeae 433b 5ff1 e73c
00000070: ebf1 ad3d c1ac 83bd 5902 eebc 90f3 f83d
00000080: 65b1 013e 09f1 7d3d ac60 983d 69df 453c
00000090: fea2 dfbb d30e 093e c8eb 213c 66c0 cabd
000000a0: f101 c33d f90b 133e 03e5 283d f9ee 833c
000000b0: 269a 97bc dcd3 af3d 5dbb 60bd 470c 79bc
000000c0: 6430 c03c 524c 70bd ad91 8e3d ac48 2fbd
000000d0: 6713 e4bd b1c4 b5bd 5393 3ebc ab04 e8bb
000000e0: fb7b 77bd 7104 a6bd 0c41 783b 5666 2c3c
000000f0: d128 58bd ff6e b63d 4ac3 dabd da93 bc3c
00000100: 131d 8bbd d5be 87bd f544 233d 25be 6ebd
00000110: 69dc e0bd e3f7 afbb 9f6e 803d 9acd d9bd
00000120: 11d3 84bc f362 823d f56c 343e 98ac f33b
00000130: 1081 9dbd c26e cb3d 9e1c f0bc 76c2 fe3d
00000140: 9820 9dbd 81f8 9d3d 216f d6bc 1e7c b9bb
00000150: 3932 a7ba c70a 0b3e 38ab f73d 17d9 72bd
00000160: 138d de3d 7083 233c 686b 6d3d 1964 72bc
00000170: 90e6 f6bc c31c b1bd 0aa7 1b3d c982 01bc
00000180: 0c24 c4bc 856e 213d 7683 693e d780 9f3d
00000190: 5f55 d1bd 78a5 983d 7396 273d dd76 7bbd
000001a0: c07a 1abd 12bc 893d da38 b5bd e1b5 193d
000001b0: e463 493d 6a9f 74bd b90e 82bd 6f20 ad3c
000001c0: c784 60bd 71a0 e5bd 7fdb 04bd b4e4 be3c
000001d0: 4275 863d eb79 df3d e9ec e4bc 5dd3 9bbc
000001e0: 6282 afbc a0f3 893d 57e1 573d 3b11 ac3d
000001f0: b2b8 913d 8a63 03bc 01b9 34bd 61f1 cd3c
00000200: ff71 03be e476 703d 35ab 213e 6394 cd3d
00000210: 8750 0dbe 0db1 b53d fc4e 8fbd 7bc4 23bd
00000220: 5134 2d3e 8283 e13c f52c 123e 8ab5 b93e
00000230: 071a 5e3d 8a04 56ba 7610 0f3e a9ad 0abb
00000240: 1749 e83d f1e0 033e 34f9 343e 9a10 c43c
00000250: 9d14 b7bc dbb3 2b3e d6bd d23d 9b54 e93d
00000260: 865d dcbd ea1b bebd de15 a73d 2d39 e7bd
00000270: 5369 bb3c 21b3 693e adc9 4e3e 74f6 373e
00000280: 673a b03d 9922 963c ac9b 723d 1156 c43d
00000290: 4d66 463e 7807 b93e a23b 413e 7e92 373e
000002a0: a179 543e baad aa3d f656 cd3d e311 203d
000002b0: b820 053e 7b58 713e ce27 9f3d 58f8 653d
000002c0: 2115 153e 154b 933d 7d07 ba3e 09d9 7f3d
000002d0: 413f 8a3d dd3f dc3c 6758 eb3d 7561 6fbd
000002e0: 859d 3a3e 3ffd a13e 09bd 8a3d 693c bb3c
000002f0: 6bbe 61bc a32d d83e 3461 c63d 36a8 4f3d
00000300: 439e e93e 6711 033e 4546 963e cddb abbc
00000310: 49e6 bc3d 45c8 313e b1dc 1fbc 869d d73d
00000320: 57ef d1bc 11e4 003e 990a 803d cbfd 363c
00000330: 48c2 a63d 82d4 2abe f550 403e f464 333e
00000340: ddba 8e3c 4c31 233e f75e be3e ff3c 9a3c
00000350: c04c 93bb f2de 933d e90d 993e fa08 2a3e
00000360: 5741 e5bd 29e6 8c3d 0001 89bc 1f1d 0d3d
00000370: 550e f2bc 6b2f 533d 327a 103d 78bb 6d3e
00000380: 8933 933d ce73 edbb 2d4f 543e 35f1 2b3d
00000390: f8bd c13d 7a16 523c 449d 123e 1aba 9f3e
000003a0: b0d0 02bc 1eac 0a3e 5878 b6bd 8808 bb3d
000003b0: e9fe e23d 0358 0dbb c0d1 833e 7193 903d
000003c0: 38c9 243d 5191 8e3d d63d 703d 983c 603e
000003d0: d1af a33e 3e8e 053a 371d 283e 626d dc3e
000003e0: cdd0 593d d377 7cbd 152f d13e 1822 633d
000003f0: 44a3 a83a dc65 033e ea59 ce3c 115c e53d
